PathPlanning/uncertainty_path_planning/continuous_planner/src/results/learn_cp/checkpoints/best_model.pth (torch, 69346 bytes, 45 tensors)

scoring_network.0.weight f4 [64, 15]
000000 eb 2b ec 3d e2 23 f9 3d 32 3d 3e be 88 39 a2 bd
       0.11531814 0.12165047 -0.18578032 -0.079211295
000010 fd 26 f5 3d 9b 4b 6f be 67 6e 03 bd f6 01 f0 3d
       0.11970327 -0.23368685 -0.03208771 0.11719124
000020 cb 46 38 be b0 64 26 be d4 d0 fe bd c7 23 51 3a
       -0.17995755 -0.16249347 -0.124421746 0.00079780485
000030 3d 0b 22 be f2 71 d5 bd 53 6b 13 bd ea 80 31 ba
       -0.158246 -0.10422124 -0.035991024 -0.0006771224
000040 d2 37 1a 3e f4 c0 40 3b 94 8d bf 3d 72 38 23 3e
       0.15060356 0.0029411884 0.09353176 0.15939501
000050 d1 e1 f1 3d ee 1f 85 3c c1 58 6b be c2 c4 7e be
       0.11810649 0.016250577 -0.22983076 -0.24879745
000060 d8 54 f8 ba 4a ae 65 be b1 9a 39 3e 07 16 c2 3d
       -0.0018946184 -0.22429767 0.18125416 0.09476858
000070 47 bc 11 be 06 32 18 be 20 96 7b be 6f a1 59 3e
       -0.14231978 -0.14862832 -0.24568987 0.21252988
000080 30 a9 a5 3b f4 bb 46 bd 3b 06 b9 bd ac 06 39 be
       0.005055569 -0.04851909 -0.090343915 -0.18068951
000090 b4 04 65 b9 80 95 35 3e 2e ed b5 3d f0 f0 d2 bc
       -0.00021840894 0.17732811 0.08883129 -0.025749654
0000a0 1f 38 63 3d 12 0c 67 be c5 e4 5f 3e ff 15 f5 bb
       0.055473443 -0.22563198 0.21864612 -0.007479429
0000b0 6e 26 74 be 13 c9 2d bd cf 2a 47 be ed 14 7b be
       -0.23842785 -0.042428087 -0.19449924 -0.24519701
0000c0 ff 7f 04 bc 03 9b 17 3d 28 30 99 bb 19 15 6e be
       -0.008087157 0.037013065 -0.00467493 -0.23250236
0000d0 ec 45 f9 3d 7c 98 00 be 5f 96 19 be 0e ee a5 bd
       0.1217154 -0.12558168 -0.14998768 -0.08102046
0000e0 14 cd 1f be e0 b0 fc 3d d4 f4 36 be a2 32 5d 3e
       -0.15605575 0.12338424 -0.17866832 0.21601346
0000f0 61 e8 83 3e f0 80 8f 3d cf 2f 73 be 2d 32 65 bd
       0.2576323 0.07007015 -0.23748706 -0.055956054
000100 cb c2 c1 3d 44 c3 2a be 4c 2f 27 be 38 75 58 be
       0.09460982 -0.1667605 -0.16326636 -0.21138465
000110 01 c1 2e 3e 38 df 87 be b1 57 82 be ca f5 7f 3d
       0.17065813 -0.2653749 -0.25457528 0.062490262
000120 29 bb 36 be f0 b5 ec 3c 74 52 b5 3d 4f 24 3f be
       -0.17844833 0.028895348 0.08853617 -0.18666194
000130 23 a0 1e bc 5e ec 34 3e c4 df ce 3d c8 5a d4 3d
       -0.009681734 0.17668292 0.10101274 0.10368878
000140 64 50 06 3e cb dd 48 3d 26 89 19 3e cd f7 c9 bd
       0.13116604 0.049039643 0.14993724 -0.098617174
000150 a9 bf f4 bd 1a 6e 2a 3e 40 59 2d 3e fd e7 6c 3e
       -0.11950619 0.16643563 0.16928577 0.23135372
000160 8a cf 80 3d 0c 7e 6f 3e cc 3f 07 be 5a dc 92 3c
       0.06289585 0.23387927 -0.1320793 0.017927337
000170 eb 5e b2 bc 4b 52 ea 3d 05 dd 2b be 83 11 3e be
       -0.021773776 0.114414774 -0.16783531 -0.18561368
000180 c3 f0 85 be 74 80 73 be fd c5 b5 3c 22 31 1c bd
       -0.2616025 -0.2377947 0.022189135 -0.038132794
000190 fb d8 79 3e 4f d4 48 bd 42 1c 74 be 57 7d 66 be
       0.24399178 -0.0490306 -0.23838905 -0.22508751
0001a0 54 79 3b be d4 f1 70 be 05 b9 72 be d4 1c 58 3e
       -0.18308002 -0.2352975 -0.23703392 0.21104747
0001b0 cb 0b 37 3e 03 1a b1 bd 82 5b 4e 3e 65 97 51 be
       0.17875592 -0.086475395 0.20152095 -0.20467909
0001c0 85 04 82 bd 8b d5 69 be 8b a9 d4 bd 8f 35 14 3e
       -0.06348518 -0.22835366 -0.103839 0.14473556
0001d0 85 89 5f 3e 11 d9 41 be 14 bd 3f be e5 fa 27 3d
       0.21829803 -0.1893046 -0.18724471 0.041010756
0001e0 0c f1 0d 3e 77 2e ba 3d 77 02 d1 3d 91 ce 44 bd
       0.13861483 0.09090894 0.10205548 -0.04804856
0001f0 04 64 47 be 78 e0 0e 3e 00 95 3b be 9d 81 0c be
       -0.19471747 0.13952816 -0.18318558 -0.13721319
000200 a4 77 60 3e 0e 9a 2a bd cd 8c 29 3e b2 aa 8b 3e
       0.2192064 -0.041650824 0.16557617 0.27278668
000210 06 4a a9 bd 3b 5f 25 3e 48 b5 85 3d f8 1e 1a be
       -0.08266072 0.16149609 0.06528717 -0.15050876
000220 09 5f 55 3e 17 34 34 3e 0b 97 26 be 89 6e 6d be
       0.20837034 0.17597996 -0.16268556 -0.23186697
000230 f8 d9 4b 3d 08 5c 1d be 5d 46 83 be eb d4 53 3e
       0.049768418 -0.15367138 -0.2563962 0.2068669
000240 14 13 fb 3d ce 9e 18 be 0c 6d 2f 3e b0 c3 65 be
       0.12259498 -0.14904329 0.17131442 -0.2243793
000250 96 09 7c 3e 87 b2 0d be 5a 9c a1 3b e0 86 c9 bd
       0.24613032 -0.13837634 0.0049319686 -0.098401785
000260 a8 79 5f be e3 79 41 3d bb 79 75 be a6 1a 3e be
       -0.21823752 0.04723538 -0.23972218 -0.18564853
000270 f7 3c 9f 3d f4 f5 0d 3e 93 34 40 be 05 b6 49 be
       0.077753 0.13863355 -0.18770055 -0.19698341
000280 6a 43 30 3e fd a3 87 bd 32 77 0f 3c d7 f1 d6 bb
       0.17213216 -0.06623075 0.008756446 -0.0065595913
000290 8a c0 c0 3d e3 f4 65 be 74 34 36 be d3 a0 9b 3d
       0.09411724 -0.22456698 -0.17793447 0.07599034
0002a0 fe 4d 88 be 57 a5 e8 3c a7 f4 3a 3e 7b 2d e6 bd
       -0.26622003 0.028399153 0.1825739 -0.112391435
0002b0 f8 03 95 bd 86 f7 e0 bd e9 af bc 3c 55 42 1a be
       -0.072761476 -0.10984711 0.0230331 -0.15064366
0002c0 63 b2 90 bd 60 09 08 3e e1 50 51 3d 5f 56 85 3e
       -0.070652746 0.13284826 0.051102523 0.26042458
0002d0 d8 57 44 bd 87 c2 89 be 7a 06 94 3b ca 44 51 be
       -0.047935337 -0.26906225 0.0045173736 -0.20436397
0002e0 f8 5b 31 3d 1b 10 7c be 75 a5 0f 3e de bb 5f bd
       0.0433006 -0.24615519 0.1402796 -0.054622523
0002f0 b6 73 17 be 3c de 8a 3d 45 e0 66 bd 9a ea 5d 3c
       -0.14790234 0.06780669 -0.056366224 0.013544703
000300 e9 90 01 3e bb cd 7c be 7f 8b 8b bd 88 44 b1 3d
       0.12652935 -0.24687855 -0.06813716 0.086556494
000310 2a 2e 3e 3e e9 75 1b bd d3 0e 33 3e 51 0f 3a 3e
       0.18572298 -0.037954245 0.17486124 0.18169905
000320 a1 cc a4 3b 0d 34 45 3e 8d 73 4e 3e 2e 2f 57 bd
       0.0050292765 0.19258137 0.20161267 -0.05253523
000330 14 ab 92 3c 19 1e 68 be fb e8 34 3e 2d 91 22 3e
       0.017903842 -0.22667731 0.17667 0.15875693
000340 8e 94 12 be 00 af 85 3e 38 2a 09 bd 85 17 0a 3e
       -0.14314482 0.26110077 -0.03348753 0.13485534
000350 5d ee ae 3d a7 f0 3e 3e 5e 1b 40 3e 46 1e 5b 3e
       0.08541558 0.18646489 0.1876044 0.21398267
000360 f7 ee 50 be 5a 85 4d be 2a 81 f2 bd d1 c1 87 bc
       -0.20403658 -0.20070401 -0.11841042 -0.016571911
000370 f1 3c 29 3e 7f 9e b4 bd da 13 c0 bd 49 f9 de 3d
       0.16527154 -0.08819293 -0.093787864 0.10887391
000380 97 fc 1f 3e 49 37 96 bd bc 0f 04 be da 07 21 3e
       0.15623699 -0.073347636 -0.12896627 0.15725651
000390 52 45 c3 3d 78 76 51 bc aa 97 f6 bd f1 52 7b bd
       0.09534706 -0.012784593 -0.120406464 -0.061358396
0003a0 e4 17 ce bc 02 39 8c bd cf de f4 bd 99 2c 56 be
       -0.025157876 -0.06846811 -0.1195656 -0.2091545
0003b0 74 10 05 be 47 49 40 3e 64 e5 5c be 3b ff 01 be
       -0.12994558 0.18777953 -0.2157188 -0.12695019
0003c0 5b a8 aa bc 00 8e 48 3d 70 60 30 3e 6f 5e e0 bb
       -0.020832231 0.048963547 0.17224288 -0.006847195
0003d0 7f ba 5e 3e 44 31 2b be 88 4f 7c 3e c3 f0 47 3e
       0.2175083 -0.16718012 0.24639714 0.19525437
0003e0 8d 39 3e be ef ef d8 3c dc 35 85 be de 93 4d bd
       -0.18576641 0.026481597 -0.26017654 -0.050189845
0003f0 fa 40 b4 3d 56 af 50 3e c5 5d 79 be 15 6e 30 be
       0.08801456 0.20379385 -0.24352176 -0.17229493

scoring_network.0.bias f4 [64]
000000 00 00 00 00 2e 47 49 bb 77 96 3c 39 00 00 00 00
       0.0 -0.0030712592 0.0001798513 0.0
000010 b9 b3 6c bb 0a 39 10 b7 b9 6e 46 3b a1 db 5b bb
       -0.0036117865 -8.596349e-06 0.0030278398 -0.0033547657
000020 18 a8 7f 39 af 3c 80 ba e7 4e f5 3a 00 00 00 00
       0.00024381315 -0.000978371 0.0018715531 0.0
000030 00 00 00 00 78 31 80 39 26 5a 06 3b 6a f3 66 bb
       0.0 0.0002445092 0.002050051 -0.00352403
000040 00 00 00 00 00 00 00 00 00 00 00 00 5d 32 62 3a
       0.0 0.0 0.0 0.00086287205
000050 18 d0 08 ba 68 63 2f bb d1 cd 81 3a 00 00 00 00
       -0.00052189967 -0.0026762132 0.0009903257 0.0
000060 50 0b 5b bb 1a 93 d6 ba 00 00 00 00 d0 c2 4e 3b
       -0.003342349 -0.0016370744 0.0 0.0031549223
000070 62 12 59 3b e5 3a 59 3b 00 00 00 00 92 cb d0 38
       0.003312253 0.0033146676 0.0 9.956131e-05
000080 00 00 00 00 a7 cd 1f bb ed 98 39 bb a7 0c 25 bb
       0.0 -0.0024384053 -0.002831991 -0.0025184543
000090 15 a1 35 bb 06 31 68 39 ff 83 a0 ba 4e f8 bf 3a
       -0.002771442 0.00022143507 -0.0012246369 0.0014646144
0000a0 7b 6d f3 ba 00 00 00 00 2a a1 62 3b db 37 b7 ba
       -0.0018572056 0.0 0.0034580925 -0.0013978438
0000b0 00 00 00 00 ca 29 7a bb 81 fa 4a 39 4f 5f da ba
       0.0 -0.003817188 0.00019357541 -0.0016660484
0000c0 08 96 2d 3b 20 78 8b ba 92 d5 ca ba 5a 51 e9 b8
       0.002648713 -0.0010640658 -0.0015475026 -0.00011125459
0000d0 64 5a c8 3a 9f a1 26 3b dd ca 81 b9 20 50 5e bb
       0.0015285728 0.0025425924 -0.00024755942 -0.003392227
0000e0 35 e2 51 bb 51 d9 d0 3a 2e 09 3f bb 7d 17 41 3b
       -0.00320257 0.0015933906 -0.0029149759 0.0029463463
0000f0 00 00 00 00 00 00 00 00 13 e5 55 bb 00 00 00 00
       0.0 0.0 -0.003263776 0.0

scoring_network.2.weight f4 [64]
000000 da c9 7e 3f c7 43 80 3f 4c 65 80 3f da c9 7e 3f
       0.9952675 1.0020684 1.0030913 0.9952675
000010 45 00 7f 3f e9 71 80 3f 26 25 7f 3f ba 50 80 3f
       0.99609786 1.0034763 0.9966606 1.0024636
000020 ca 55 80 3f db 1c 7f 3f f9 54 80 3f da c9 7e 3f
       1.0026181 0.99653405 1.0025932 0.9952675
000030 da c9 7e 3f a8 b5 7f 3f 5e 8d 7f 3f cb 30 7f 3f
       0.9952675 0.9988656 0.99825084 0.9968383
000040 da c9 7e 3f da c9 7e 3f da c9 7e 3f 54 5f 7f 3f
       0.9952675 0.9952675 0.9952675 0.99754834
000050 b0 55 80 3f 8a c8 7e 3f ec 7f 7f 3f da c9 7e 3f
       1.002615 0.9952475 0.9980457 0.9952675
000060 58 58 80 3f 3f 21 7f 3f da c9 7e 3f b5 49 80 3f
       1.002696 0.99660105 0.9952675 1.0022494
000070 4e 6d 80 3f e9 66 80 3f da c9 7e 3f b5 80 7f 3f
       1.0033357 1.0031406 0.9952675 0.99805766
000080 da c9 7e 3f 19 60 80 3f 3b 56 80 3f a5 64 80 3f
       0.9952675 1.0029327 1.0026315 1.0030714
000090 bb 56 80 3f 92 ff 7e 3f bb 36 7f 3f 80 9c 7f 3f
       1.0026468 0.9960872 0.9969289 0.99848175
0000a0 ec 67 80 3f da c9 7e 3f 26 85 80 3f d4 1a 7f 3f
       1.0031714 0.9952675 1.0040634 0.9965031
0000b0 da c9 7e 3f e4 72 7f 3f e2 5f 7f 3f 94 41 7f 3f
       0.9952675 0.99784684 0.9975568 0.9970944
0000c0 8d 57 80 3f 2c 3d 7f 3f a4 35 80 3f c1 1f 7f 3f
       1.0026718 0.99702716 1.001637 0.9965783
0000d0 1d 2b 80 3f 22 60 80 3f a7 a4 7f 3f cb 89 7f 3f
       1.0013157 1.0029337 0.99860615 0.9981963
0000e0 fe 3a 7f 3f cc 7d 7f 3f 6c 4e 80 3f c4 78 80 3f
       0.9969939 0.99801326 1.0023932 1.0036855
0000f0 da c9 7e 3f da c9 7e 3f 4d 42 80 3f da c9 7e 3f
       0.9952675 0.9952675 1.0020233 0.9952675

scoring_network.2.bias f4 [64]
000000 5c 47 4b 3b 0c 58 3b 3b dc 7a f3 ba f5 89 52 bb
       0.0031017875 0.0028586416 -0.0018576044 -0.0032125686
000010 40 21 1e ba 0a a6 14 3b 48 a5 de 3a fe 45 35 3b
       -0.00060321763 0.0022681975 0.0016986514 0.0027660127
000020 f8 7a 3f 3b 93 a7 75 bb 04 69 9a 3a 4f 09 44 bb
       0.0029217582 -0.0037483915 0.0011780565 -0.0029912775
000030 f8 c7 1a bb 86 5e 30 3b 82 b1 3c 3b 75 2b 39 3b
       -0.0023617726 0.002691181 0.0028792326 0.0028254662
000040 54 fe fb 3a d4 d9 4c bb 89 49 6c 3b b3 fb 29 bb
       0.0019225576 -0.0031257765 0.0036054573 -0.0025937378
000050 86 fe 2c bb 21 5a 47 bb 89 8d 47 bb 83 9a 41 bb
       -0.0026396825 -0.0030418711 -0.0030449352 -0.002954156
000060 3b d4 2f 3b 97 0f ee ba dd fa 48 3b d7 18 43 bb
       0.002682938 -0.0018162605 0.0030667104 -0.0029769444
000070 f9 5a 39 3b 4c c4 35 bb 9d 5a 80 bb 4f 63 3d bb
       0.0028282984 -0.002773541 -0.003917052 -0.0028898304
000080 f0 54 3d bb b4 99 38 bb 1c b9 75 3b 65 49 3d bb
       -0.0028889738 -0.0028167786 0.0037494367 -0.0028882858
000090 b8 85 69 bb 9b 0c 43 bb af d9 4a bb df 98 34 bb
       -0.003563268 -0.0029762152 -0.0030952503 -0.0027556939
0000a0 08 e7 43 bb 37 31 46 3b 4f 7a 00 3b b8 4c 2a bb
       -0.0029892344 0.0030241737 0.0019604152 -0.002598567
0000b0 7f f0 86 bb d5 70 51 bb 96 5c 85 3b 7e 86 5f bb
       -0.004118025 -0.0031958122 0.004069875 -0.0034107263
0000c0 6f 6b b7 39 a1 c6 93 3a 82 71 21 3b e2 92 1d 3b
       0.00034984524 0.0011274406 0.0024634306 0.0024043848
0000d0 6d 46 3f bb fa 60 10 3b bc 7e 30 bb aa 63 3c bb
       -0.0029186264 0.0022030459 -0.0026931008 -0.0028745928
0000e0 7c e5 5f 3b 60 13 48 3a 2a e6 3f 3b 1e e2 56 3b
       0.0034163883 0.00076322816 0.0029281476 0.0032788585
0000f0 e6 90 0a 3b 57 54 68 3b 98 21 29 bb d6 4e 14 3b
       0.0021143495 0.003545066 -0.0025807377 0.0022629998

scoring_network.2.running_mean f4 [64]
000000 00 00 00 00 6a 6d 85 3e 3d 04 95 3a 00 00 00 00
       0.0 0.2606004 0.0011369061 0.0
000010 cb 38 5e 3b a8 f5 0c 3f c7 d8 e2 3e 8c 45 44 3f
       0.0033908363 0.5506234 0.44306013 0.7666862
000020 eb 96 31 3e e5 b7 14 3c 32 25 ec 3d 00 00 00 00
       0.17342727 0.009077047 0.11530532 0.0
000030 00 00 00 00 66 34 28 3f b3 ee 3c 3f cc 10 23 3e
       0.0 0.65704954 0.73801726 0.15924376
000040 00 00 00 00 00 00 00 00 00 00 00 00 92 7f 62 3f
       0.0 0.0 0.0 0.88475907
000050 66 da 90 3f 00 c2 b2 3b ee c9 d4 3e 00 00 00 00
       1.131665 0.0054552555 0.4156031 0.0
000060 0a ee 06 3f 27 ff 45 3f 00 00 00 00 f0 76 33 3f
       0.5270697 0.77342457 0.0 0.7010336
000070 b8 4d aa 3b 00 b6 0f 3f 00 00 00 00 dc f5 73 3f
       0.005197253 0.56137085 0.0 0.95297027
000080 00 00 00 00 3f 08 25 3f fd 8e 5e 3e a0 48 9b 3e
       0.0 0.6446571 0.21734233 0.30328846
000090 9a e9 9e 3e 18 a4 18 3f 55 2c b3 3d 34 f9 6f 3b
       0.310376 0.5962539 0.0874869 0.0036617042
0000a0 39 30 4e 3f 00 00 00 00 aa 3a 3d 3c ab b5 85 3d
       0.8054233 0.0 0.011549631 0.06528791
0000b0 00 00 00 00 87 f2 1e 3d 69 4b 55 3f 81 3b 15 3e
       0.0 0.03880551 0.8331819 0.1457348
0000c0 12 a2 de 3c 03 7f d2 3d ff 93 a7 3e 45 29 84 3f
       0.02717689 0.10278132 0.327301 1.0325094
0000d0 03 6c fd 3b 9b c9 81 3f 03 b2 87 3f 8c 1c 81 3e
       0.0077338233 1.013965 1.06012 0.25217092
0000e0 b6 bb 52 3f f4 e2 8f 3a 4c 42 e4 3e 91 da a5 3e
       0.82317674 0.0010977671 0.4458183 0.32393315
0000f0 00 00 00 00 00 00 00 00 c6 0d 5a 3d 00 00 00 00
       0.0 0.0 0.05323579 0.0

scoring_network.2.running_var f4 [64]
000000 59 2a 17 3f d6 c2 1e 3f bd 3b 17 3f 59 2a 17 3f
       0.5904899 0.62016046 0.5907553 0.5904899
000010 09 63 17 3f a5 a0 1f 3f 7d e3 21 3f 5f 28 28 3f
       0.5913549 0.623545 0.63237745 0.656866
000020 67 fc 26 3f e0 83 18 3f a3 23 1c 3f 59 2a 17 3f
       0.65228885 0.59576225 0.6099188 0.5904899
000030 59 2a 17 3f 69 8e 1f 3f 71 00 2a 3f 05 15 1d 3f
       0.5904899 0.62326676 0.66406924 0.613602
000040 59 2a 17 3f 59 2a 17 3f 59 2a 17 3f 9e 63 21 3f
       0.5904899 0.5904899 0.5904899 0.6304263
000050 82 b8 2c 3f 57 bb 17 3f e6 ed 1b 3f 59 2a 17 3f
       0.67469037 0.5927023 0.6090988 0.5904899
000060 51 ba 23 3f 4b 0f 2a 3f 59 2a 17 3f 76 8a 27 3f
       0.6395617 0.66429585 0.5904899 0.6544565
000070 cb 1a 18 3f 68 c4 22 3f 59 2a 17 3f 4e fb 2a 3f
       0.5941588 0.6358094 0.5904899 0.6678971
000080 59 2a 17 3f d4 d4 25 3f 6d ce 1b 3f 46 fa 21 3f
       0.5904899 0.64777875 0.60861856 0.6327251
000090 7f 99 1c 3f b3 7b 21 3f 08 3f 19 3f 57 71 17 3f
       0.61171716 0.63079375 0.59861803 0.5915732
0000a0 38 22 28 3f 59 2a 17 3f ee f0 17 3f 42 2c 19 3f
       0.65677214 0.5904899 0.59352005 0.5983316
0000b0 59 2a 17 3f 16 c9 18 3f 73 83 21 3f a1 03 1f 3f
       0.5904899 0.5968183 0.630912 0.6211491
0000c0 ff bb 19 3f c4 3d 18 3f 03 07 1c 3f f5 97 26 3f
       0.60052484 0.59469247 0.609482 0.6507562
0000d0 38 8e 17 3f 8f dd 3a 3f e4 65 27 3f 50 96 18 3f
       0.59201384 0.7299432 0.6538985 0.5960436
0000e0 65 c2 33 3f 4b 35 17 3f ad 25 24 3f 23 74 1c 3f
       0.702185 0.59065694 0.6411999 0.6111471
0000f0 59 2a 17 3f 59 2a 17 3f c2 b3 19 3f 59 2a 17 3f
       0.5904899 0.5904899 0.60039914 0.5904899

scoring_network.4.weight f4 [32, 64]
000000 fb 03 31 be 34 f4 28 be e0 57 b6 39 db 7f 5f be
       -0.17286675 -0.16499406 0.00034779217 -0.21826117
000010 4e e4 91 bd 85 c3 e8 3d 0d 63 ed 3d 9a ce 43 3e
       -0.07123624 0.113654174 0.11591158 0.19121781
000020 a1 bb 97 3d eb 42 70 3e 5e 9a 86 3d 76 5f ce 3d
       0.07408834 0.23463027 0.06572412 0.100768015
000030 ea 5d b6 bd b5 79 43 be 08 1c 25 3e 01 91 29 be
       -0.089046314 -0.19089396 0.16123974 -0.16559221
000040 6a 1d 3c 3d b9 a5 e7 3b a4 38 48 3e 4f d5 4d be
       0.04592649 0.007069316 0.19552857 -0.20100902
000050 90 a6 86 3c d8 53 4c 3d 02 8b fe bb 5a f6 07 3e
       0.016436845 0.049884647 -0.007768036 0.1327757
000060 e0 9e 34 bd 5e 9b 45 3e 61 ea 0e 3e f9 b3 6d be
       -0.044096828 0.19297549 0.13956596 -0.23213185
000070 80 a9 d1 bc ee 7a aa 3d 75 aa 51 3e 36 54 1c 3e
       -0.02559352 0.08324228 0.2047518 0.15266499
000080 78 3c 60 bd c2 0c 43 be 16 8e 66 3e a4 14 3a 3e
       -0.054745167 -0.19047835 0.22515139 0.18171936
000090 a9 da 51 3e 13 29 a1 3d 1e 18 0b 3e bb c6 5a bc
       0.20493568 0.078691624 0.13583419 -0.013353045
0000a0 44 22 6a 3e 6b f5 23 3e a6 90 31 be 3f 44 88 bd
       0.22864634 0.16011588 -0.17340335 -0.06653642
0000b0 9f 7c 24 3c 64 fa 4d be 2d 07 d4 39 fb d3 31 3d
       0.010039478 -0.20115048 0.00040441137 0.04341505
0000c0 6d 29 79 3d ff 99 7c 3e b6 a7 de bd e2 4c 83 bd
       0.060830522 0.2466812 -0.10871832 -0.064111486
0000d0 dd 72 48 3e f4 aa 4a be 62 f4 43 bd d4 11 44 be
       0.19575067 -0.19791776 -0.047840483 -0.19147426
0000e0 19 45 48 be ea 3b 63 3d d5 d3 18 3d 59 ef 13 bd
       -0.19557609 0.05547706 0.037311394 -0.03611693
0000f0 f0 69 37 3e a1 bf 42 3d 4e a1 69 be 34 66 22 be
       0.17911506 0.047546033 -0.22815439 -0.158593
000100 4d 34 5b be b3 77 23 be aa 58 34 3e 18 43 99 3d
       -0.2140667 -0.1596363 0.17611948 0.074835
000110 00 13 87 3d 92 e8 6f be c6 c6 5b 3e 4c 10 25 3e
       0.06595421 -0.23428562 0.21462545 0.16119498
000120 00 8e 3f 3e fd 4f 08 3e 3d 8b 8f bd 05 66 4d 3e
       0.18706512 0.13311763 -0.070089795 0.20058449
000130 86 e0 60 3e 0c cf 3e be 2c 13 0d 3e 35 84 ed 3d
       0.21960649 -0.1863367 0.13776845 0.11597482
000140 a4 82 6c 3e 8c d8 4d bd 7a 6d 52 3e 03 da d0 3c
       0.2309671 -0.050255343 0.20549574 0.025494581
000150 f4 73 58 bd 63 fb d5 3b a3 83 31 3d 2e d6 db bd
       -0.052844957 0.006530212 0.04333843 -0.10734211
000160 bd 2e 0a 3d bc a2 3c be 9a 7d 68 be 1d cd 07 3e
       0.03373598 -0.18421453 -0.22704163 0.13261838
000170 6c d9 f5 3c 5f cc 1b 3e 77 bf cb bd 8f 1b 08 3e
       0.030010901 0.1521468 -0.099486284 0.13291763
000180 81 ce ce bd b1 b7 3c 3e 7e 9c 74 be e9 be 74 3e
       -0.10097981 0.18429448 -0.23887822 0.23900951
000190 72 db 5a be cb ab 7e 3e f6 d2 0d be 64 50 a4 bd
       -0.21372774 0.24870221 -0.13850006 -0.08023146
0001a0 c9 d2 4e be f7 3f 38 3e b1 e9 58 be 4b 18 1b be
       -0.20197596 0.1799315 -0.21182896 -0.15145986
0001b0 d7 00 55 bd d9 da fa 3c 52 e8 7a 3e 2c 1c 52 3e
       -0.052002754 0.030621933 0.24502686 0.20518559
0001c0 cb 3a 94 bb 8e 3a 00 be 9c 28 ce bc 33 04 2e be
       -0.00452361 -0.12522337 -0.025165848 -0.1699379
0001d0 76 7c 2c 3e 9c 83 93 3d 86 c1 92 bd a2 3a 2a 3e
       0.16844353 0.07202837 -0.07165818 0.16623929
0001e0 5b 26 76 be 93 87 ec bd 8a 5b 2b be d6 74 1a be
       -0.24038069 -0.11549296 -0.16734138 -0.15083632
0001f0 a5 83 44 3e d6 fa 2a be e7 b2 6d 3e 44 7a 4a 3c
       0.19190843 -0.16697249 0.23212777 0.012358252
000200 6e 0b 26 be c9 16 63 3e 12 ee 02 bc 0b 59 01 be
       -0.16215298 0.2217666 -0.007991331 -0.12631623
000210 45 ef 1b be a6 bf 64 3d 31 b4 5b 3e 8f 57 2e 3e
       -0.15227993 0.055846833 0.21455456 0.17025588
000220 a4 fe ef 3c 58 03 6d 3e f0 22 3f 3e c4 c1 19 be
       0.029296227 0.23145807 0.18665671 -0.15015322
000230 6f e5 41 3e 42 73 dc bd c0 23 bf bd ce da 44 3a
       0.18935178 -0.10764171 -0.09332991 0.0007509411
000240 bd e3 be 3d 51 16 56 be be 6f 02 3d 3b 17 f9 bd
       0.093207814 -0.2090695 0.031844847 -0.12162634
000250 a3 b3 01 3d 00 d7 2a be 28 bc 39 3e 66 68 55 3e
       0.031665456 -0.16683578 0.18138182 0.20840606
000260 28 3e 58 3d bc 84 83 bd 86 1e 36 3c e7 1f 3d bd
       0.05279365 -0.064218014 0.011115676 -0.046173003
000270 10 cb 07 3e b0 f9 e1 3c 71 7a ee bd 0d 2c 54 3e
       0.13261056 0.02758488 -0.116444476 0.20719929
000280 fe e5 75 3e a5 d6 f0 3b d2 ac c2 bd 72 68 c7 3d
       0.24013516 0.0073498064 -0.09505619 0.09736718
000290 3e b3 8b 3d 01 0e 51 be a9 e4 14 be 3f 91 ee 3d
       0.06821297 -0.20415498 -0.14540352 0.11648797
0002a0 bf 66 1a 3e ea 40 79 be 3e ea 40 be be 88 17 3e
       0.15078257 -0.24341169 -0.18839356 0.14798257
0002b0 8f 27 ba 3d d3 c1 61 3e f7 8d fc bd 12 fe 34 bb
       0.090895765 0.22046594 -0.12331765 -0.0027617258
0002c0 56 8a 13 be 6e 8c 5a 3d cd aa 4b be 56 68 d8 3d
       -0.1440824 0.05335658 -0.19889374 0.105667755
0002d0 c1 f0 94 bc bd c0 05 3e b9 ef 96 3d f5 58 11 3e
       -0.018181207 0.13061805 0.07369942 0.1419409
0002e0 3e 7c 14 bd 4b 4f 6a 3e 53 51 b6 bc 52 f3 3e 3e
       -0.0362513 0.2288181 -0.022255575 0.18647507
0002f0 b6 46 20 3c a7 ed 86 bd 2a ed 02 3c 09 56 76 be
       0.009782484 -0.06588297 0.007991115 -0.24056257
000300 89 6e cf 3d af 1b 6e 3e 00 71 08 be 2c a0 2a be
       0.10128505 0.23252748 -0.13324356 -0.16662663
000310 b9 5d 07 be 86 bc 30 3e 19 77 38 3a 97 61 4a be
       -0.13219346 0.17259416 0.000703679 -0.1976379
000320 a6 bb cc bd 91 ea 0c be 71 39 77 3d 3d 9a ea bd
       -0.099967286 -0.13761355 0.060357515 -0.114552
000330 e3 c0 57 3e 08 75 be 3d be 27 63 be 83 e2 76 3e
       0.21069674 0.09299666 -0.22183129 0.24109845
000340 c2 e5 46 3e f7 3c 4a 3e 34 d6 11 3e 63 f9 7c 3e
       0.19423583 0.19749819 0.14241868 0.24704508
000350 d8 c5 3b 3d da d2 1f 3e 7e da 20 bd 76 1a 34 be
       0.045842975 0.15607777 -0.03927087 -0.17588219
000360 ca 2b 7e 3e 56 48 1a be 76 e3 e1 bd 80 f7 22 3e
       0.24821392 -0.15066656 -0.11029713 0.15914726
000370 86 92 54 be bd 64 fd bd 9c cc b9 bd 25 1f 9d 3d
       -0.2075902 -0.1237273 -0.09072229 0.07671956
000380 2a cb 6d 3e 22 d7 1b 3e b4 c9 51 be ed 2e d4 3d
       0.23222032 0.15218785 -0.204871 0.10360513
000390 a3 d4 4b 3e 79 a7 2d bd ac 36 83 bd 3e d5 09 be
       0.19905333 -0.042396042 -0.06406912 -0.13460252
0003a0 12 a6 d4 3d c2 9d 4a be 45 d1 b0 bc 8a 77 01 be
       0.10383238 -0.19786742 -0.021584162 -0.12643257
0003b0 17 fa 04 3d 61 30 18 3d ac 12 80 bc 25 95 78 be
       0.032465067 0.037155513 -0.015633903 -0.24275644
0003c0 2d a3 00 be ce 1d 76 be 91 23 70 3d e5 3d 61 be
       -0.12562247 -0.24034807 0.05862767 -0.21996267
0003d0 07 77 04 be 4b 40 c9 3d 13 67 44 3d 02 83 57 3e
       -0.1293603 0.09826716 0.04794986 0.2104607
0003e0 74 f7 a5 3d 65 4e 7c be e7 e5 1f be 8f 2c 6b 3d
       0.081038386 -0.2463928 -0.15615045 0.05741554
0003f0 a4 3b 73 3e 12 ef ed bd 3b a1 76 3e be 7a 4a 3e
       0.2375322 -0.11617865 0.24084942 0.19773385

scoring_network.4.bias f4 [32]
000000 14 b1 39 3b 09 f7 1d 3b 0a b2 2b 3b b4 17 85 bb
       0.0028334307 0.0024103543 0.002619865 -0.0040616635
000010 b0 54 89 3b 6f 86 15 bb b7 cf 57 3b 3c 67 35 bb
       0.0041910037 -0.0022815724 0.0032930204 -0.002767994
000020 68 e4 56 3b 93 e5 1b bb 71 0e 85 bb 3d e6 36 bb
       0.003278995 -0.002378796 -0.0040605594 -0.0027908229
000030 1a ac 64 bb 85 95 6d bb 47 ce e7 ba e6 11 55 3b
       -0.003489262 -0.003625245 -0.0017685377 0.003251189
000040 41 8f 04 bb 77 b8 4a bb 9f c2 3f 3b 71 9a 2a bb
       -0.0020226988 -0.0030932704 0.002926029 -0.0026031996
000050 06 c4 63 bb c4 44 60 3b 97 3c b2 ba 83 86 2d 3b
       -0.003475429 0.0034220675 -0.001359838 0.002647788
000060 e7 74 52 3b b6 7c 79 3b 9b 6a 3d 3b 99 e2 35 3b
       0.0032113136 0.0038068718 0.0028902653 0.002775347
000070 38 cb 57 bb 1b 04 27 39 dd 84 38 bb 8e 07 58 3b
       -0.0032927524 0.0001592789 -0.0028155365 0.0032963487

scoring_network.6.weight f4 [32]
000000 d2 3f 80 3f ae 4a 80 3f b7 82 7f 3f 1f 16 7f 3f
       1.0019476 1.002279 0.9980883 0.9964313
000010 1b 59 80 3f 6d 1b 7f 3f 01 2b 80 3f 9d 6d 7f 3f
       1.0027193 0.99651223 1.0013124 0.9977663
000020 44 33 7f 3f 32 6a 80 3f 61 68 80 3f 42 21 7f 3f
       0.996876 1.0032408 1.0031854 0.9966012
000030 1c 5c 80 3f c9 72 7f 3f 1e 02 7f 3f d0 19 80 3f
       1.002811 0.99784523 0.99612606 1.0007877
000040 9a 31 7f 3f 00 40 7f 3f 6b 04 7f 3f 62 5c 80 3f
       0.9968506 0.9970703 0.99616116 1.0028193
000050 0f 26 7f 3f ef 4a 7f 3f ce c8 7f 3f b6 f2 7e 3f
       0.9966745 0.99723715 0.9991578 0.995891
000060 8c 3a 80 3f cb e9 7f 3f 12 34 80 3f 48 cd 7f 3f
       1.0017867 0.99966115 1.0015891 0.9992261
000070 8f ec 7e 3f d1 3d 7f 3f 03 62 80 3f 67 3f 7f 3f
       0.9957971 0.997037 1.0029911 0.9970612

scoring_network.6.bias f4 [32]
000000 2f a3 5a bb 90 8c 33 bb 4c 2a 54 3b f3 f8 82 bb
       -0.0033361425 -0.0027397014 0.0032373844 -0.003996962
000010 e7 89 0f 3b 3b 4c f8 ba 8f 56 23 3a fe 57 5d 3b
       0.0021902265 -0.0018943617 0.0006230855 0.0033774371
000020 5e 68 67 bb 12 99 67 3b d0 75 05 bb 1b ca 3e 3b
       -0.003531001 0.003533904 -0.0020364411 0.0029112163
000030 02 7d 6a bb ba a9 06 3b d4 fc 01 3b ba f4 65 3b
       -0.0035780077 0.0020547942 0.0019834535 0.0035088495
000040 23 b4 18 3b 2a 5b 91 3a c1 44 1b 3b 16 56 45 bb
       0.002330073 0.0011089791 0.0023692104 -0.0030111126
000050 83 cb f2 ba aa 26 63 3b 00 14 4f 3b fa 2e e7 ba
       -0.0018523786 0.0034660497 0.0031597614 -0.0017637901
000060 ed ad 87 3b 21 ae 8d 3b 64 04 9a b9 5f e8 3d bb
       0.0041406066 0.0043237363 -0.0002937644 -0.0028977615
000070 bc 8a 73 3b 47 b9 84 bb 96 f7 54 3b 25 18 02 3b
       0.003716155 -0.004050407 0.0032496206 0.0019850817

scoring_network.6.running_mean f4 [32]
000000 3b 1f bb 3d 60 b0 0f 3e bb 2b 37 3e 99 ba 5c 3e
       0.09136816 0.14032125 0.17887776 0.21555556
000010 71 e4 0a 3e f5 22 b3 3d 73 3d 30 3e 49 7a 07 3e
       0.13563706 0.08746902 0.17210941 0.13230242
000020 21 73 e4 3d 6d d8 2b 3e a0 f3 21 3e ee b1 5a 3e
       0.111547716 0.16781779 0.15815592 0.21356937
000030 63 17 0a 3e 12 5b fd 3d 9c 4a 15 3e 1e 22 81 3e
       0.13485484 0.12370886 0.14579242 0.25221342
000040 a8 d9 ed 3d b8 97 2e 3e 47 49 da 3d 38 ca 09 3e
       0.1161378 0.17050064 0.10658508 0.13456047
000050 1b 55 39 3e 31 46 12 3e 74 6c e0 3d 8e 88 0f 3e
       0.18098871 0.14284588 0.10958186 0.14016935
000060 11 13 23 3e 5f 53 f2 3d 00 88 01 3e 70 66 07 3e
       0.15925242 0.11832308 0.12649536 0.1322267
000070 4a 4c 1c 3e 87 9f a6 3d a2 24 dd 3d dd 99 d8 3d
       0.15263477 0.08135896 0.10798003 0.10576222

scoring_network.6.running_var f4 [32]
000000 10 ad 29 3f 1c 66 47 3f 9e ef 29 3f 6b e6 3d 3f
       0.662797 0.7789018 0.6638125 0.74179715
000010 67 f0 3c 3f 04 66 38 3f ab 74 35 3f cc 31 29 3f
       0.73804325 0.72030663 0.70881146 0.6609161
000020 ef 9f 2a 3f 68 58 49 3f 2b ab 44 3f af 2a 3f 3f
       0.6665029 0.7865052 0.7682368 0.74674505
000030 d6 22 6d 3f 66 46 32 3f 62 a5 60 3f 6f 7f 62 3f
       0.9263128 0.6963867 0.87752354 0.884757
000040 15 b1 4b 3f 76 0c 58 3f 69 ae 28 3f e6 dd 63 3f
       0.7956708 0.84394014 0.6589113 0.89010465
000050 75 31 6c 3f 65 de 3d 3f 8b 6f 23 3f 61 04 28 3f
       0.92262965 0.7416747 0.63842076 0.6563168
000060 25 0b 2a 3f 8e 6a 81 3f 4f 7b 4f 3f 94 41 2d 3f
       0.66423255 1.0110643 0.8104753 0.6767819
000070 5e f2 94 3f 86 f7 21 3f cb 2b 2a 3f 79 69 22 3f
       1.1636465 0.63268316 0.6647307 0.6344219

scoring_network.8.weight f4 [16, 32]
000000 e5 c4 84 be f9 9d ee 3c 98 b8 44 3e 83 fa a1 39
       -0.2593147 0.029128062 0.19211042 0.0003089496
000010 9e 83 f9 bd e2 d2 ae be 44 72 2c 3d 55 63 5b be
       -0.12183307 -0.34145266 0.04210116 -0.21424611
000020 b3 00 af be e2 6e b6 3e 33 1c e0 3d af ae 3b be
       -0.3418022 0.35631472 0.109428786 -0.18328355
000030 06 6a 8c be 2d f4 6a 3d f7 6b 48 be e7 76 05 be
       -0.2742464 0.05736177 -0.19572435 -0.13033639
000040 72 37 22 be 0d 7c 87 3e 8c eb 89 be 34 4f 58 3e
       -0.15841463 0.2646183 -0.2693752 0.21123964
000050 cd fa aa 3e aa 71 1e be c2 2b de 3d 23 f6 7b 3d
       0.3339447 -0.15473047 0.1084819 0.06151403
000060 b5 52 9b be 93 fe 12 3e a5 19 4f bd 76 cf 43 be
       -0.30336538 0.14354925 -0.050561566 -0.19122109
000070 94 63 58 be 0a 66 39 3e 8a a6 b2 bd 98 03 1a 3d
       -0.21131736 0.18105331 -0.08723171 0.037601084
000080 48 18 44 be a2 81 af 3e f2 f5 8c be 93 0b 0f be
       -0.19149888 0.3427859 -0.2753139 -0.13969259
000090 3d 41 7d bd 14 75 96 bd db 71 b4 3e ba ec 90 3d
       -0.061829794 -0.0734655 0.35243115 0.07076402
0000a0 36 17 a4 be ed 20 d6 3c 75 74 91 be 3f 73 89 bd
       -0.3204896 0.026138747 -0.28409162 -0.067114346
0000b0 0f 3c aa be 1b 2f 98 be ac 61 a7 3e d6 2b a3 3e
       -0.33248946 -0.2972344 0.32691705 0.31869382
0000c0 46 0f 82 bd 73 a2 9b be 53 7a e8 3d e7 2c 5b bd
       -0.063505694 -0.30397376 0.113514565 -0.05350962
0000d0 47 ff 82 3d f2 e0 9e bd e4 e2 01 be 27 60 6b 3b
       0.063963465 -0.07757749 -0.12684208 0.0035915466
0000e0 f3 5b 49 be ed 7f 80 3e ac b4 04 be 1f 5e 17 be
       -0.19663982 0.250976 -0.12959546 -0.14781998
0000f0 46 51 6e be 88 c2 2f 3d 1c 16 9b be 4b c2 89 bc
       -0.23273191 0.04291013 -0.30290306 -0.016816279
000100 3e 0a 1d 3e a0 2a 3f be 26 7e 1c be 47 66 6d bd
       0.15335938 -0.18668604 -0.15282497 -0.057958867
000110 c4 0c 3a 3c b5 9b 79 be 3c 99 f9 3d c5 fe 46 be
       0.011355583 -0.24375804 0.1218743 -0.19433124
000120 7a 18 6d 3d d8 5d 19 3e 5e 28 30 be b2 0b 81 bd
       0.05788467 0.14977205 -0.17202899 -0.06301059
000130 1d d4 01 bd 24 32 37 3e f6 35 3b 3d bf 85 78 be
       -0.031696428 0.17890221 0.045705758 -0.2426977
000140 1f cd 8e 3c c7 2d 8e be 48 20 91 be f2 c6 12 bc
       0.017431794 -0.277693 -0.2834494 -0.008958565
000150 c1 b2 fa bd 01 46 7f be bb 58 02 3d 80 b3 c7 3d
       -0.12241126 -0.24929048 0.0318229 0.09751034
000160 21 10 9d 3e fe 8d 40 be 1e 69 83 3e 3c 8b 23 3e
       0.30676368 -0.18804166 0.25666136 0.15971082
000170 ad 4c 5c be df 20 59 be 7e f2 8f be 39 f2 42 3e
       -0.21513624 -0.21203946 -0.28114694 0.19037713
000180 36 7b 96 3e b1 4e 1f be fe 3c 33 be 45 23 07 be
       0.29390877 -0.15557362 -0.17503735 -0.13197048
000190 df 3c 53 be ed bc a8 bd 7d c6 3c 3e 7a 0d a7 be
       -0.20628689 -0.0823916 0.18435092 -0.3262747
0001a0 31 cf 48 3e e4 8d fc bd d8 71 33 3e 83 b5 1d be
       0.19610287 -0.12331751 0.17523897 -0.15401272
0001b0 2b 81 84 be 2b 10 97 be 7a f0 98 3e cb 02 80 3c
       -0.25879797 -0.29504523 0.2987097 0.015626332
0001c0 03 30 14 3d 04 23 00 3e f8 a1 a6 be 2b 8c c1 bc
       0.0361786 0.12513357 -0.32545447 -0.023626408
0001d0 1f ea 8c 3b 14 34 9c 3e b1 12 a0 3e 1e 2c 6b 3e
       0.0043003703 0.30508482 0.3126426 0.22966048
0001e0 eb 69 73 be ef 0b 8c 3d 7d 19 c5 bd a8 a4 92 be
       -0.23770873 0.06838214 -0.09624002 -0.28641248
0001f0 f5 1a 4e 3e 64 1e 7e 3e 08 7a 19 be eb 1c 5e 3e
       0.20127471 0.2481628 -0.14987957 0.21690719
000200 9b c7 bf bd 77 11 18 3e 77 92 8f be fb cb cc bd
       -0.093642436 0.14850412 -0.2804143 -0.09999844
000210 2e c5 9e 3e 20 47 9e bd 8c ad a4 3e f4 18 9b 3d
       0.3100981 -0.0772841 0.32163656 0.07573119
000220 45 39 38 be 11 a5 5e 3e f2 3a b3 3e f9 14 7b be
       -0.17990597 0.21742655 0.3500591 -0.24519719
000230 d8 ae 44 be ce 8f 0b 3e 92 a3 6c 3d fc 6d d0 3d
       -0.19207323 0.13629076 0.05777318 0.10177228
000240 2b 17 b4 3d 58 fe 41 be 4f 2e 81 be 37 d2 2f be
       0.087934814 -0.1894468 -0.25230643 -0.17170034
000250 56 a0 9a be 09 d4 5d 3e d0 13 ac 3e d0 4e 2f 3e
       -0.30200452 0.21662916 0.33608866 0.17119908
000260 07 9e 9c be 90 39 09 be 80 20 91 3e c0 a4 a2 be
       -0.30589315 -0.13400865 0.28345108 -0.3176632
000270 00 ce 3b 3e c5 46 9a be 17 d8 1b be be 5d 29 3e
       0.18340302 -0.30132118 -0.1521915 0.16539666
000280 e4 e9 a6 3d 78 1a 38 3e 15 b2 8b bd f9 99 e1 bd
       0.0815008 0.17978847 -0.06821076 -0.11015696
000290 d6 7e 5f be 23 cc 49 3e 26 9b 80 3e 3f 0d 74 3e
       -0.21825728 0.19706778 0.2511837 0.23833178
0002a0 26 a7 a3 3d b6 49 f2 3d 75 5f a2 be a5 01 a8 3e
       0.079908654 0.118304655 -0.31713453 0.32813755
0002b0 6d 96 84 3e d2 0c 4f be d1 8a 82 be 76 d3 06 bd
       0.25896016 -0.20219734 -0.25496534 -0.03291651
0002c0 1a c8 20 3e 33 5d 84 3e b1 b3 95 3e 05 37 1d 3e
       0.15701333 0.25852355 0.29238656 0.1535302
0002d0 56 97 a1 be e5 ed 5f be 5d 83 39 be 74 a2 3a 3e
       -0.31560773 -0.21868093 -0.18116517 0.18226033
0002e0 8b 08 88 3a 2c 2b 8a be 7e 50 92 bd 08 47 e8 3d
       0.0010378523 -0.26986063 -0.07144259 0.11341673
0002f0 09 7c cd bd 40 49 bf 3d 6b f1 85 3e 75 1c c8 bd
       -0.100334235 0.09340143 0.2616075 -0.09771053
000300 00 6e 97 be 82 f2 85 be 5c d8 a3 3d 16 c1 0b be
       -0.2957611 -0.2616158 0.08000252 -0.13647875
000310 71 21 c1 3d 8f 2d 9c be b2 ee 4e be 75 35 14 be
       0.094302066 -0.30503508 -0.20208243 -0.14473517
000320 93 4f 33 be c4 7f 73 bd 06 b5 ad 3e 81 4a 46 3e
       -0.17510824 -0.05944802 0.33927172 0.19364358
000330 bd 81 8c be 44 4c 9f 3e 79 58 04 bd dd 47 ab be
       -0.27442732 0.31112874 -0.032310937 -0.33453265
000340 ea 7a 6e 3e 35 dd 32 3e 7e b2 3c 3e 4f 6f a1 be
       0.23289075 0.17467196 0.18427464 -0.31530234
000350 0e 7e 98 bd 70 35 33 3e 79 47 8b bd 2c 87 3d 3d
       -0.07445918 0.17500854 -0.06800742 0.046271488
000360 83 8b 7d 3e ec 0e 28 3d 79 ac 82 3e 6f dd 75 3d
       0.24760251 0.041029856 0.2552221 0.06002563
000370 78 22 6e bc 39 8c 50 be f6 41 af 3e 74 19 96 be
       -0.014534585 -0.2036599 0.34230012 -0.29316294
000380 ac 10 66 be c8 be 85 3e c5 44 a2 be 84 0f 9d be
       -0.22467297 0.26122117 -0.31693092 -0.306759
000390 20 2e 81 3d 7d ec 41 be 13 cd 0b be ec 93 8e 3e
       0.06307626 -0.1893787 -0.13652448 0.2784723
0003a0 2f d0 f9 bd 97 27 36 be de 97 78 be 58 fa 9a be
       -0.12197911 -0.1778854 -0.24276683 -0.30269122
0003b0 1f 32 c0 bd 8c a1 92 be 91 bd 9c 3e 29 5b 88 3e
       -0.0938456 -0.28638875 0.30613378 0.2663205
0003c0 9a 6f 55 bd 1c 69 9b 3d d0 23 ab bd 17 b2 cc bd
       -0.052108385 0.075884074 -0.0835644 -0.099949054
0003d0 35 e2 91 be a7 22 57 3e e6 e5 c9 bd 85 05 53 3e
       -0.28492895 0.21009313 -0.09858303 0.20607574
0003e0 e1 96 5d 3d 3f 93 37 be c9 8f 53 be d0 b6 64 be
       0.054098967 -0.17927264 -0.20660318 -0.22335362
0003f0 d2 1e 06 be 98 82 b4 be b1 d7 af be d4 f6 8e bd
       -0.13097695 -0.35255885 -0.34344247 -0.069806725

scoring_network.8.bias f4 [16]
000000 32 f0 2d bb 3c c6 56 bb 28 79 3b bb 18 d1 ea 3a
       -0.0026540873 -0.0032771965 -0.002860615 0.0017915098
000010 48 b2 33 3b 56 5d d1 3a 2f 69 3c 3b a9 5e 46 3b
       0.0027419496 0.0015973251 0.0028749218 0.0030268824
000020 39 2d 1c bb 61 9c 66 bb e8 9e 48 3b 67 84 48 3b
       -0.0023830666 -0.0035188424 0.0030612294 0.0030596496
000030 70 b9 51 3b d5 66 48 bb d9 9f 7a 3b 9d e5 0d bb
       0.0032001399 -0.003057887 0.003824225 -0.0021651753

scoring_network.10.weight f4 [16]
000000 60 6a 80 3f f5 0d 7f 3f e4 42 80 3f f1 6d 80 3f
       1.0032463 0.9963067 1.0020413 1.0033551
000010 23 36 80 3f 6f 45 80 3f 47 5b 7f 3f c8 81 7f 3f
       1.0016521 1.002119 0.99748653 0.99807405
000020 85 e9 7e 3f f4 7b 7f 3f d4 6b 80 3f 67 1d 7f 3f
       0.9957507 0.9979851 1.0032907 0.9965424
000030 f4 3d 7f 3f b6 78 7f 3f be 38 80 3f 6d dd 7f 3f
       0.9970391 0.99793565 1.0017316 0.99947244

scoring_network.10.bias f4 [16]
000000 f6 33 4e 3b d7 fd 4d 3b c1 4e 59 bb f5 a4 da ba
       0.0031464077 0.0031431818 -0.0033158513 -0.0016681241
000010 7a ac 4c bb 60 13 4e 3b 1c af 5d 3b d7 d7 1f 3b
       -0.0031230734 0.0031444654 0.0033826297 0.0024390125
000020 f8 28 35 3b 69 ad 59 3b 78 78 4e 3b e8 6b 51 3b
       0.0027642827 0.0033214933 0.003150491 0.0031955186
000030 f2 b8 47 bb f3 b7 47 3b fd 83 47 bb 14 94 e2 ba
       -0.0030475226 0.0030474633 -0.0030443661 -0.0017286562

scoring_network.10.running_mean f4 [16]
000000 46 48 38 3e ff 24 43 3e 5d dd 37 3e 53 2b 5b 3e
       0.1799632 0.19057082 0.17955537 0.21403246
000010 55 d2 6c 3e a8 c3 29 3e f7 0e 35 3e aa b8 64 3e
       0.2312711 0.16578543 0.1768149 0.22336069
000020 e4 7a 35 3e ed 6f 1d 3e 09 48 74 3e 56 93 2d 3e
       0.1772266 0.15374728 0.23855604 0.16950735
000030 a0 5e 25 3e 39 fa 45 3e d8 73 39 3e 1b 5b 21 3e
       0.16149378 0.19333734 0.18110597 0.1575741

scoring_network.10.running_var f4 [16]
000000 d5 79 3c 3f cf b3 3a 3f a1 78 3a 3f 80 b1 5c 3f
       0.736234 0.72930616 0.72840315 0.86208344
000010 10 c1 72 3f aa a0 37 3f d9 1a 3f 3f 6a a1 41 3f
       0.9482584 0.7172953 0.7465034 0.75636923
000020 f1 68 85 3f 64 dc 48 3f 56 9d 88 3f 35 a8 39 3f
       1.042265 0.7846129 1.0673015 0.7252229
000030 84 ce 42 3f 78 a0 3e 3f 0a 18 50 3f e3 02 45 3f
       0.7609637 0.74463606 0.8128668 0.7695753

scoring_network.12.weight f4 [1, 16]
000000 7b 52 a9 3d d7 26 b5 3c f2 d8 ae be 62 00 a7 3e
       0.08267685 0.022113247 -0.3414989 0.3261748
000010 0e 02 16 bf ea 3e f9 3e 0b 51 fa 3e 62 53 0a bf
       -0.58596885 0.48680812 0.48889956 -0.5403348
000020 1b ae ac 3d f4 59 13 3f 79 4f 15 3f c2 80 1f 3e
       0.084316455 0.5755913 0.5832439 0.15576461
000030 0d 05 58 be af fd 7a 3e 12 5b 15 bf 7b b8 02 3f
       -0.21095677 0.24510835 -0.5834209 0.51062745

exp_avg f4 [64, 15]
000000 e0 71 bf 36 98 ac c9 36 7c a2 18 b7 bc 1d 85 b6
       5.7055004e-06 6.0103594e-06 -9.097737e-06 -3.9671704e-06
000010 56 87 c6 36 13 54 3f b7 81 ec e3 b5 7f 78 c2 36
       5.916615e-06 -1.1404062e-05 -1.698165e-06 5.795678e-06
000020 85 ee 13 b7 78 d3 05 b7 a6 26 ce b6 84 a8 04 30
       -8.817417e-06 -7.976654e-06 -6.1437777e-06 4.8260795e-10
000030 38 65 02 b7 c3 84 ad b6 8d 27 fd b5 37 6d c7 30
       -7.772171e-06 -5.1712573e-06 -1.886148e-06 1.4510196e-09
000040 fd 78 06 37 0a 2c 4d 38 03 d9 98 3a 31 f4 a1 3a
       8.015192e-06 4.8916823e-05 0.0011661354 0.00123561
000050 22 df 88 bb af 06 7b 35 93 f5 35 39 7b de c1 bb
       -0.00417699 9.351451e-07 0.00017352989 -0.0059164143
000060 65 83 40 bb fb e8 4f 39 7e cc 1c bc 95 3f 9e 36
       -0.0029375192 0.0001982785 -0.009570239 4.716169e-06
000070 ba de 57 bb 20 41 f5 b6 ec 05 49 b7 79 3d 2e 37
       -0.0032939152 -7.3091505e-06 -1.1981912e-05 1.0385521e-05
000080 5f 04 60 b5 f4 0f 27 b6 bc 19 97 b6 bc 08 cb 39
       -8.3452863e-07 -2.4894225e-06 -4.5031466e-06 0.00038725685
000090 cc db 26 b4 be 12 d4 39 27 a5 9b 3a 64 5e a0 b8
       -1.5539916e-07 0.00040449755 0.0011874781 -7.646976e-05
0000a0 a0 88 3d 36 91 ec 02 3a 1f 2e 33 37 1d 63 7f 39
       2.824272e-06 0.00049943576 1.067997e-05 0.00024355618
0000b0 5d 28 43 b7 30 61 13 b6 4c ad 1f b7 03 a0 48 b7
       -1.16323035e-05 -2.1961278e-06 -9.517487e-06 -1.1958185e-05
0000c0 cd 41 11 b5 59 e1 01 36 48 b7 c9 b4 28 5f 3e b7
       -5.411246e-07 1.9353668e-06 -3.7572522e-07 -1.1347038e-05
0000d0 72 c7 c9 36 55 06 d0 b6 4b 73 f7 b6 ef 09 88 b6
       6.0134853e-06 -6.19962e-06 -7.3745955e-06 -4.0542723e-06
0000e0 56 a0 00 b7 97 79 cc 36 f3 e3 12 b7 c6 0d 31 37
       -7.666726e-06 6.0938287e-06 -8.755352e-06 1.0553229e-05
0000f0 3c ab 52 37 7c b2 6c 36 08 7f 30 b7 b9 7c 5d 3a
       1.2556844e-05 3.5270632e-06 -1.0519994e-05 0.0008449066
000100 ed fd 9d 36 65 66 2e 38 48 73 06 b7 1c b6 28 b8
       4.7085255e-06 4.1580195e-05 -8.013863e-06 -4.0223924e-05
000110 ab 76 89 39 eb 13 15 b7 22 33 50 b7 3d d1 de 38
       0.0002621909 -8.88573e-06 -1.2409671e-05 0.000106247586
000120 75 b6 12 b7 fe 31 38 38 22 2e 94 36 ca 58 19 b7
       -8.74476e-06 4.3915577e-05 4.4161143e-06 -9.1401835e-06
000130 4c 23 41 b4 0a 68 13 b7 10 fb 80 3b 95 a0 57 ba
       -1.7987367e-07 -8.786106e-06 0.003936179 -0.00082255277
000140 8e d6 e6 ba 8f be 28 36 05 0c aa b9 83 42 b8 ba
       -0.001761155 2.514487e-06 -0.00032433882 -0.0014057908
000150 e9 0f 0a 39 20 11 3e 39 11 0d 55 ba a7 71 3d 37
       0.00013166633 0.00018126192 -0.0008127252 1.129174e-05
000160 22 9a 79 ba db 7b 3f 37 63 85 da b6 29 9c 8b b5
       -0.0009521564 1.14133245e-05 -6.5124345e-06 -1.0401756e-06
000170 3a d0 89 37 b3 bd b1 bb 84 76 aa 38 93 5e ca ba
       1.6428636e-05 -0.0054242252 8.128307e-05 -0.0015439562
000180 22 e0 55 b7 0e 4d 5e 39 c8 b9 a8 3a 08 39 4e ba
       -1.2747974e-05 0.00021200275 0.001287275 -0.00078667747
000190 9b 91 0f ba 31 45 32 bb 56 20 43 b7 47 f2 b4 ba
       -0.0005476714 -0.0027201886 -1.16304345e-05 -0.0013805114
0001a0 27 74 16 b7 1b a1 40 b7 32 30 41 b7 37 c4 4b 38
       -8.9677405e-06 -1.1481602e-05 -1.1514918e-05 4.858171e-05
0001b0 7c 45 28 3b 39 03 31 3a e4 fd e7 ba 2d e6 27 b7
       0.0025676182 0.00067524944 -0.0017699567 -1.0007568e-05
0001c0 e6 dd eb 38 40 97 80 ba ae 60 a2 ba 6b d2 f6 39
       0.00011247005 -0.0009810701 -0.0012388432 0.0004707755
0001d0 21 b6 65 bb 34 7b 1b b7 ae f0 bf ba a8 cc 0e 36
       -0.0035051184 -9.267405e-06 -0.0014643872 2.1278775e-06
0001e0 20 14 e5 36 8c be 98 36 fd 37 4a b8 7a a4 8e 38
       6.8270747e-06 4.5521356e-06 -4.8212696e-05 6.801724e-05
0001f0 1a 3c d3 b9 f9 7e c0 b8 fb 89 16 b7 2a e4 68 36
       -0.00040289835 -9.178924e-05 -8.972823e-06 3.4703503e-06
000200 6a a8 9a b9 99 ee ee 39 3f 8f 40 37 bb d0 ea 38
       -0.00029498647 0.00045572667 1.1477444e-05 0.000111968686
000210 48 b0 8a b6 7b f3 9f 35 42 3e 5d 36 c6 4a f8 b6
       -4.1332423e-06 1.1917285e-06 3.2967805e-06 -7.3996807e-06
000220 6a e1 2a 37 0b ea 57 38 8b 1f 35 ba 29 dd ea 39
       1.0185273e-05 5.1477964e-05 -0.00069093023 0.00044796735
000230 ec 34 02 b8 a5 66 fd b6 66 d1 7a b9 40 1c 1d 39
       -3.1043703e-05 -7.551937e-06 -0.00023919865 0.0001498321
000240 72 e9 a6 b8 d4 b6 53 39 65 0a 5f b9 91 cf 37 b7
       -7.9589794e-05 0.00020190637 -0.0002127081 -1.0955978e-05
000250 3d 76 13 b7 80 b1 e4 b6 b2 6c d0 34 17 d0 70 b6
       -8.789412e-06 -6.815593e-06 3.8822105e-07 -3.588391e-06
000260 5d fe 9b 38 20 2e 31 3a 08 32 f9 b9 21 37 4e ba
       7.438355e-05 0.00067588873 -0.00047530257 -0.0007866491
000270 a2 c2 82 36 4f 7c af b9 39 d1 48 ba ba 93 82 3a
       3.89696e-06 -0.00033471218 -0.0007660571 0.0009962239
000280 17 cd 40 39 c2 d6 5b 3b a2 f1 19 35 ae 3a 0f ba
       0.00018386949 0.0033544754 5.7348564e-07 -0.0005463761
000290 39 32 9d 36 5f f6 37 b7 35 4c 12 b7 51 d3 7f 36
       4.6848113e-06 -1.0965013e-05 -8.7200215e-06 3.8120963e-06
0002a0 e7 9a 59 b7 47 14 cc 35 7f 0b 16 37 8a b7 ba b6
       -1.2970274e-05 1.5205086e-06 8.943373e-06 -5.5645987e-06
0002b0 9b 64 75 b6 57 9b b6 b6 71 62 a9 35 8d 82 f8 b6
       -3.6566405e-06 -5.4421066e-06 1.2620131e-06 -7.406174e-06
0002c0 63 94 6e b6 63 c3 db 36 02 69 2f 36 96 ec 54 37
       -3.5551136e-06 6.5494546e-06 2.6138155e-06 1.2691269e-05
0002d0 0c 2d 25 b6 94 e6 5b b7 f3 99 c5 34 04 a5 27 b7
       -2.4613137e-06 -1.3107103e-05 3.6806122e-07 -9.992396e-06
0002e0 fe 32 16 36 21 66 49 b7 94 c4 e7 36 c0 c8 3a b6
       2.2381423e-06 -1.2004312e-05 6.907221e-06 -2.7833012e-06
0002f0 e8 14 f4 b6 49 62 65 36 1f 6b 40 b6 b3 ff 57 35
       -7.2742005e-06 3.4180869e-06 -2.8672582e-06 8.046583e-07
000300 3c 8e d1 36 b3 fb 49 b7 a1 73 66 b6 6c fb 90 36
       6.2452436e-06 -1.2039137e-05 -3.4339976e-06 4.320804e-06
000310 b8 78 1b 37 ef 98 f9 37 df 42 00 ba 7c d0 36 38
       9.266827e-06 2.9754328e-05 -0.0004892777 4.3586348e-05
000320 09 02 8e ba be 20 1e 37 80 42 36 b9 8c b1 3c 3a
       -0.0010834347 9.425157e-06 -0.00017381646 0.00071980874
000330 f6 ea b8 39 b5 51 4f b9 45 17 13 b9 dc ce 02 37
       0.00035270274 -0.00019771497 -0.00014027681 7.796767e-06
000340 ae a1 67 ba 67 78 55 37 ee f8 ec b5 f8 5c e7 36
       -0.0008836043 1.2723823e-05 -1.7655818e-06 6.8951595e-06
000350 2a ad b1 37 be e1 21 3b c8 a7 06 ba 98 7b 0b 38
       2.118068e-05 0.0024701203 -0.00051366957 3.3255288e-05
000360 54 61 27 b7 e0 f0 7e 38 18 92 c8 3a c7 8f d5 3a
       -9.976637e-06 6.078265e-05 0.0015302328 0.0016293459
000370 26 4d d4 38 18 d7 24 3b 01 aa 9c b6 59 92 c1 39
       0.00010123318 0.002515262 -4.6689534e-06 0.00036920866
000380 cf c5 00 37 74 49 77 b6 73 a3 da b6 14 6e 0b b7
       7.67545e-06 -3.6848623e-06 -6.5159343e-06 -8.310675e-06
000390 0d ad 75 3c 12 19 fa b9 d2 d3 79 39 87 8c 50 b6
       0.014994872 -0.00047702395 0.000238254 -3.1076213e-06
0003a0 7f 61 20 b9 63 f6 0f 3b 99 5b c9 3a ef 82 cc 3a
       -0.00015295109 0.0021966926 0.0015362381 0.0015602986
0003b0 aa 37 aa 3b dd 3f 1a 37 11 e3 16 3a 47 3c d2 b6
       0.005194624 9.193985e-06 0.00057558814 -6.265505e-06
0003c0 cf 26 9b b5 9c 7f 28 36 5b b3 0d 37 1b 26 01 b5
       -1.1559695e-06 2.510823e-06 8.446014e-06 -4.8111696e-07
0003d0 dc 42 32 37 87 9c 09 b7 28 98 49 37 6f 49 20 37
       1.0625194e-05 -8.202281e-06 1.201596e-05 9.553841e-06
0003e0 9e 9f 18 b7 99 ae bf 35 4d b9 54 b7 06 76 2c b6
       -9.09707e-06 1.4281424e-06 -1.2679328e-05 -2.5698696e-06
0003f0 6b 56 93 36 22 2f 27 37 9f 45 47 b7 1f be 0d b7
       4.3910018e-06 9.96495e-06 -1.1877534e-05 -8.448521e-06
