PathPlanning/uncertainty_path_planning/continuous_planner/fixed_learnable_cp_model.pth (torch, 6450 bytes, 5 tensors)

fc1.weight f4 [32, 10]
000000 fd a5 b3 bc a7 fd 7e 35 af a8 b9 3a 51 0e 41 3d
       -0.021929735 9.4991486e-07 0.0014164652 0.047132794
000010 c4 3e 9e 3c 6e d5 1a bc 60 7b aa ba 7c 9f 4b 3b
       0.019317038 -0.0094503 -0.0013006739 0.0031070402
000020 5f 22 21 ba a5 7d 00 3c 50 cd 61 3d ed b6 01 bd
       -0.0006146784 0.007842456 0.055127442 -0.031668592
000030 1b 77 9e bb 51 fd d5 3d 13 29 2a 3d 51 d7 61 3c
       -0.004835976 0.10448707 0.041543078 0.013784246
000040 7b 98 75 af ee ae 29 3d 28 e8 01 32 5d ed c4 bd
       -2.2336792e-10 0.04142659 7.5615745e-09 -0.09615586
000050 b8 4d 69 be dd cc 2c 3e ae 68 09 3e 25 93 a6 be
       -0.22783554 0.16875024 0.13418838 -0.32534137
000060 c5 da b8 3d 2d ff 1b 3c 13 b5 9e b6 c1 49 34 3d
       0.09026102 0.009521288 -4.7298468e-06 0.04401565
000070 6e 37 82 3d 32 ba 21 3f 76 e2 1e 3e 80 4a bc bd
       0.063582286 0.63174736 0.15516075 -0.09193897
000080 11 45 8d bd aa 6a 70 3e 3f 42 de 3c a5 bc ab 3d
       -0.06897939 0.23478189 0.027131198 0.083855905
000090 01 da 7d b0 50 ec 97 3d a8 41 49 b2 d7 2c 0d be
       -9.2350666e-10 0.0741812 -1.1714668e-08 -0.13786636
0000a0 47 fa 29 b6 ae 95 cc 3a c8 39 4f 31 90 4f a9 32
       -2.5328643e-06 0.0015608573 3.015531e-09 1.971037e-08
0000b0 98 cf 00 30 76 e7 12 36 7b e5 87 31 f8 1b f0 ba
       4.6861137e-10 2.1890423e-06 3.955106e-09 -0.0018318882
0000c0 93 8e f2 3a c0 9a 67 b1 dd 67 cc bd 34 e7 dd 3d
       0.0018505625 -3.370289e-09 -0.09980748 0.10835114
0000d0 aa 77 60 3e 82 28 5a be c9 97 dd 3d 3d 47 96 3d
       0.21920648 -0.21304515 0.10819966 0.073378064
0000e0 e3 49 39 2f ee 21 81 3d 5e 4f 3f 33 12 80 32 3e
       1.6851902e-10 0.063053 4.4542837e-08 0.17431667
0000f0 bc 33 b2 ba bb 64 1b b1 23 d7 70 bc 32 79 56 b0
       -0.001359574 -2.2612727e-09 -0.01469973 -7.8024975e-10
000100 51 91 36 ae f5 90 4b 32 78 9a 0a b7 8d 9b b1 32
       -4.1511076e-11 1.1849115e-08 -8.261406e-06 2.0676248e-08
000110 db 5c 09 b1 ce 36 03 b1 b4 98 17 b1 8b 11 51 36
       -1.9988906e-09 -1.9094162e-09 -2.2060194e-09 3.1153638e-06
000120 27 41 a4 33 52 bb 8c 32 88 48 51 b5 85 11 40 ba
       7.648696e-08 1.6383328e-08 -7.7964114e-07 -0.00073268294
000130 55 fb f5 30 a8 4d b9 31 22 3d 06 37 f0 04 f3 b4
       1.7897529e-09 5.393037e-09 8.001256e-06 -4.526587e-07
000140 97 44 13 be d2 3e 14 3e e6 25 92 3e ae 6d 00 be
       -0.14381634 0.14477089 0.2854454 -0.1254184
000150 c0 54 84 3d e4 62 a8 b8 f9 86 56 b0 7c 4a 86 3d
       0.06461477 -8.029284e-05 -7.8044554e-10 0.065571755
000160 e0 48 9f b1 ee 45 a6 3e 62 10 a5 3e 5e 1f e1 bd
       -4.635794e-09 0.32475227 0.32239062 -0.10992311
000170 13 ce c7 bd cc 92 3e 3e 96 23 e1 3d e8 b6 c6 3d
       -0.097561024 0.18610686 0.109931156 0.09702855
000180 66 b8 85 30 91 fa 49 3e 22 92 92 ba 8c ca 85 be
       9.729433e-10 0.1972449 -0.0011182467 -0.26131094
000190 37 6e 9c 3d f4 4a 1c bd 39 3e 25 bd 30 ae 1d 3e
       0.07638209 -0.03815742 -0.040342543 0.15398479
0001a0 4c ba 8e 3c 24 a0 78 3d d6 d2 b3 b1 db 29 91 3d
       0.017422818 0.060699597 -5.233555e-09 0.070880614
0001b0 c6 4e dc bc 29 f1 09 bd 76 42 b7 38 3a 5c 93 b5
       -0.02689303 -0.033677254 8.738499e-05 -1.0979195e-06
0001c0 bd 01 a2 bd 0b 1f 55 39 42 2e 1d 3c 8d 6d 54 38
       -0.07910488 0.00020324827 0.009593548 5.0646766e-05
0001d0 fd 93 90 32 8f 25 c5 38 12 fe e8 b6 2c b2 3c 39
       1.6831104e-08 9.400688e-05 -6.9437165e-06 0.00017995451
0001e0 d4 93 3e bc 73 21 d7 3c bb 2b b2 39 54 c8 08 bd
       -0.011631925 0.026261067 0.00033983387 -0.033394173
0001f0 86 79 fe 3c b7 5e f6 3c ed 61 28 ba ba a0 1f 3d
       0.031063806 0.03007446 -0.00064232835 0.03897164
000200 99 53 0b b3 cc de f9 3d fb 86 35 be 73 67 63 3e
       -3.243949e-08 0.12200698 -0.17727272 0.22207431
000210 75 05 f4 3e db 8f ce be 17 85 25 3e 12 46 00 3d
       0.47660413 -0.40344128 0.16164051 0.031316824
000220 e3 89 f5 2f 23 98 57 3d 48 34 e4 b8 0c a1 03 3e
       4.4663215e-10 0.052635323 -0.00010881625 0.12854403
000230 ac d2 6d bd e0 9a 93 3b 47 47 c0 3d 33 54 cd 3d
       -0.05806224 0.0045045465 0.09388595 0.10025825
000240 ac 92 b9 3d b0 af d7 3d f2 b2 68 2f 21 9c 11 3e
       0.090611786 0.105315566 2.1163851e-10 0.14219715
000250 61 7e 0b af bc b2 02 3e fb aa 14 3e 13 87 60 bd
       -1.2686875e-10 0.12763494 0.14518349 -0.054816317
000260 8c 39 63 bd 23 f8 43 3e d7 fe e5 3d 42 eb b7 3d
       -0.055474803 0.19137625 0.112302475 0.08980419
000270 1b 7f d9 af 9e 75 9c 3b 28 3a 5e 3a 01 4b 94 bd
       -3.9562384e-10 0.0047747632 0.0008477294 -0.07240868
000280 c2 a0 a1 bb 17 bc 3f b8 62 34 96 bc 09 ca 13 3e
       -0.004932494 -4.571312e-05 -0.018335525 0.14432539
000290 a5 be 4f bd 28 5a d8 bc 80 b5 d6 36 45 7a b6 bc
       -0.050718922 -0.026410177 6.3988264e-06 -0.0222751
0002a0 41 54 23 2f 22 55 a2 b0 a9 9d 4d 3d 77 0b ea 3c
       1.4854697e-10 -1.1811248e-09 0.050199185 0.02856992
0002b0 1f b9 00 3e 26 d3 e0 3c cd 11 a8 3d 09 c2 b0 3d
       0.12570618 0.027444433 0.0820652 0.08630759
0002c0 d0 55 02 ba c0 4e e0 3d c0 b4 65 30 8a 98 79 3d
       -0.00049718935 0.1095252 8.3566576e-10 0.06093649
0002d0 94 75 a5 30 5a 40 b1 2d f6 52 c1 32 f9 54 7c b9
       1.2038748e-09 2.0151148e-11 2.2505883e-08 -0.00024064248
0002e0 ea bb b2 b5 03 f1 e2 32 b2 73 20 b5 1c 90 9d bd
       -1.3316724e-06 2.6419462e-08 -5.9773004e-07 -0.07693502
0002f0 f9 2f f3 32 a3 2d 02 b7 e1 87 48 bd a0 cb 97 3d
       2.8310739e-08 -7.759229e-06 -0.04895771 0.07411885
000300 16 35 0a 3e b6 fb 3d be 4c 9c 46 3d a0 a6 f1 bc
       0.13496813 -0.18553051 0.0484889 -0.029498398
000310 62 53 df 35 24 d9 d5 3c ca d4 25 bd a2 25 90 3e
       1.6639062e-06 0.026104517 -0.040486135 0.28153712
000320 38 bf 20 b3 e9 32 d0 2e bc 68 12 37 49 17 56 bb
       -3.7426815e-08 9.4677884e-11 8.7266635e-06 -0.0032667688
000330 8e 26 a5 32 bb b0 6b bb 36 39 61 3d 68 23 f7 31
       1.922606e-08 -0.0035963494 0.0549862 7.1926713e-09
000340 57 eb ff 3c e7 5b 0e 31 4b 72 7b b6 1e fc 86 36
       0.031240148 2.071596e-09 -3.7468442e-06 4.0228615e-06
000350 7a 31 ec bc 23 d3 03 3b 7c c4 d9 b5 a9 8b 99 bb
       -0.028832186 0.002011486 -1.6224944e-06 -0.0046858382
000360 c6 e5 86 2e c2 56 d8 b5 78 ca be b2 d4 8e 7d b8
       6.1344305e-11 -1.6118504e-06 -2.2210983e-08 -6.045292e-05
000370 53 62 04 39 8e 53 8f bc 0a 19 b4 bc 7f b2 84 39
       0.0001262513 -0.017495897 -0.021984596 0.00025309992
000380 e2 26 2d 39 89 57 d2 38 82 49 81 30 88 55 00 3b
       0.0001651305 0.00010029885 9.406877e-10 0.001958223
000390 65 7f 8b b6 98 ef c9 39 7c b7 83 bd d6 e8 e9 3d
       -4.1573535e-06 0.0003851622 -0.06431481 0.11421363
0003a0 dc 53 a6 3e 4b e1 61 be 98 3e 71 3d 7b 1a 9a bd
       0.32485855 -0.22058599 0.058897585 -0.07524582
0003b0 cf 15 0e b1 51 fe 22 3e e6 dd 0d 33 f4 a8 66 3e
       -2.0676116e-09 0.15917327 3.3030936e-08 0.22525388
0003c0 d0 61 04 3e 9c 35 d5 bd 3f 24 24 be 7f 9f c2 3e
       0.12927938 -0.10410616 -0.16029452 0.3801231
0003d0 2d 8f ce 3d 16 d8 53 3d 8b 9b 3a b3 03 95 02 3e
       0.10085902 0.051719747 -4.3447965e-08 0.12752156
0003e0 5e 32 73 31 d1 c9 c8 bd 2e cd 83 b8 24 ab 32 b1
       3.5389784e-09 -0.098041184 -6.2847845e-05 -2.5999691e-09
0003f0 c6 df 69 31 cf 57 6f b7 77 c1 90 b0 d3 e1 94 31
       3.4033163e-09 -1.4265955e-05 -1.0532365e-09 4.33304e-09

fc1.bias f4 [32]
000000 55 81 93 bd ff 6f 2c 3d 4c 68 82 3e 50 c9 54 3e
       -0.072024025 0.042098995 0.25470197 0.2077992
000010 c8 be 36 b3 f0 63 91 3c 42 e8 47 ba 64 2f 09 b7
       -4.254869e-08 0.01774785 -0.00076258567 -8.17687e-06
000020 e5 4e cc bb ca 9b 18 3e 02 84 d2 38 6a 9f 8c 38
       -0.006234991 0.14903179 0.00010038169 6.7054134e-05
000030 83 0c dd bc 72 53 ca 3d 09 fa 2c 3e bb 45 42 3e
       -0.026983505 0.09879197 0.16892256 0.18971913
000040 4a 3b 73 bd 13 59 66 3e 54 23 00 ba 61 20 d7 3d
       -0.059382714 0.22494917 -0.0004888077 0.10504223
000050 c0 9f 8e b1 53 74 9d b6 2c 05 27 37 0b 99 13 bd
       -4.1509054e-09 -4.6925065e-06 9.95518e-06 -0.036034625
000060 8e 72 2b 3e 7c ba cc b9 90 18 75 bd 37 e9 00 3e
       0.16742918 -0.00039048854 -0.059837878 0.12588964
000070 d0 c0 70 ac 8f ef 33 3e 08 72 0c 3e 73 de fa b4
       -3.4213084e-12 0.17571853 0.13715374 -4.6727982e-07

fc2.weight f4 [16, 32]
000000 4f a2 f9 36 05 a1 f7 bc d9 81 8d 3e 91 43 cc bd
       7.4396735e-06 -0.030228147 0.27638128 -0.09973825
000010 ac 5a bc ba b2 93 dc 3d d9 43 c6 b6 65 9b 33 32
       -0.0014370284 0.10770358 -5.9087583e-06 1.0454504e-08
000020 1c f3 2d 3d 37 8a ef bd f3 ae 24 bd 1c bc 41 39
       0.042468175 -0.11696284 -0.040205907 0.0001847599
000030 50 a1 0f 3c aa 6b 8b 3e d5 c9 a0 3d 66 9f 3c bd
       0.008766487 0.2723058 0.078509964 -0.04605045
000040 02 e4 33 3d 67 fe 11 3e aa c5 a6 b5 a8 be 0d 3e
       0.043918617 0.14257203 -1.2425492e-06 0.13842261
000050 0d e6 25 3a 5a e1 00 b0 54 30 f4 b7 c1 29 30 3e
       0.0006328531 -4.688637e-10 -2.9109571e-05 0.17203428
000060 78 21 f2 bd 3d bc 42 b5 1c e9 28 3e ff b0 b4 bc
       -0.1182279 -7.2544555e-07 0.16495174 -0.022057055
000070 55 91 b4 30 8b 8d 7b bd 40 ba 5a bd 84 f4 a2 30
       1.313803e-09 -0.061414283 -0.053400278 1.1856547e-09
000080 22 d1 9b bc ab 77 46 3d d2 c2 68 bd 03 14 e7 3d
       -0.01902062 0.048453968 -0.05682642 0.11283114
000090 8f fe 94 3c 1c 7b 46 bd 01 7e 98 b5 ae ae 98 2f
       0.01818779 -0.04845725 -1.1361554e-06 2.7772756e-10
0000a0 a0 c1 5a bd e5 c9 0c 3e 3c 68 62 3d 16 08 c0 b8
       -0.05340731 0.13748892 0.055275187 -9.1567796e-05
0000b0 18 3c 4b bc ba 25 ab bd 2c 46 58 3d 95 e8 b6 3d
       -0.012404464 -0.08356805 0.052801296 0.0893108
0000c0 e8 29 cb b9 a5 e4 60 3d b7 56 1f b1 bd 21 1b bd
       -0.000387504 0.054905552 -2.3186837e-09 -0.037873972
0000d0 70 e1 3f 31 1e 67 6d b9 ce 6f d0 b7 8b b2 72 bd
       2.7922304e-09 -0.00022640495 -2.4847595e-05 -0.059252303
0000e0 e0 4d 07 3e 06 e1 31 bd 24 07 7c bd 7b ea a4 3d
       0.132133 -0.04342749 -0.061530247 0.08052536
0000f0 6c 16 96 b6 73 ef d5 3d 93 ff f5 3d a0 36 3a b3
       -4.4729586e-06 0.10446062 0.120116375 -4.335618e-08
000100 e5 9d 86 38 11 bc 83 bc ec cf bc 3e 41 da cb bc
       6.419028e-05 -0.016080888 0.36877382 -0.024884345
000110 ad 32 3c af 34 53 18 3e c7 24 b2 bb 0e 61 37 b7
       -1.7116504e-10 0.1487549 -0.005436513 -1.0930247e-05
000120 41 7c 67 3e f2 ca 43 be 3c 3e 12 bd ff a6 10 39
       0.22605993 -0.19120386 -0.035703883 0.00013795121
000130 99 1a 0f 3d 05 af 87 3e 5a e9 3f bc 62 6d 44 bd
       0.034937475 0.26500717 -0.01171335 -0.047955878
000140 5f a2 ba bd 7e 83 9f 3d b6 3a 87 31 b0 e2 a0 3d
       -0.09113001 0.07788752 3.9356918e-09 0.07855737
000150 11 34 65 30 e0 4c 90 32 e6 b1 62 3c 2e e8 1b 3e
       8.3383705e-10 1.6798765e-08 0.01383636 0.15225288
000160 d2 2c 2d be 70 2e d6 b1 5b d2 37 3e 7a df 06 3d
       -0.16911629 -6.233499e-09 0.17951338 0.032927968
000170 e0 5c 7f 2d ef c5 84 bd 9f 1b 2e bd 59 80 a4 b0
       1.4515694e-11 -0.06483065 -0.04250681 -1.1969049e-09
000180 77 c6 f6 bb 13 a7 c1 bc aa 2e b0 3e d7 d3 47 bd
       -0.007530983 -0.023639238 0.34410602 -0.04878601
000190 56 92 a6 bb 6d 94 2f 3e 15 3c 1d b2 92 ec 6f b5
       -0.0050833626 0.17146464 -9.152264e-09 -8.9378693e-07
0001a0 9f 80 1c 3e f1 76 a9 bd 06 b6 1e bd 88 f3 30 39
       0.1528344 -0.082746394 -0.03874781 0.0001687539
0001b0 1f 40 e7 3c a2 7d 58 3e ca ae 7f 3d 5f 98 02 bd
       0.028228818 0.21141675 0.06242255 -0.031883594
0001c0 4c 57 f2 36 b9 6f 7b 3d 7d c3 71 36 1d 31 9c 3d
       7.2223247e-06 0.061385844 3.6025588e-06 0.07626555
0001d0 74 ed 87 ad bd fd 7a b2 6e 3b e7 b7 b3 57 17 3e
       -1.5453173e-11 -1.4609609e-08 -2.756502e-05 0.14779548
0001e0 26 df 84 bd b8 07 f0 3b ee 10 20 3e 83 4b 03 bc
       -0.06487875 0.007325139 0.15631458 -0.008013609
0001f0 ee ff 1a b0 82 c7 be bc 09 c8 00 bd 2a bb ee 30
       -5.638857e-10 -0.023288492 -0.03144077 1.7369974e-09
000200 cd 42 0d 39 44 ae ab bb 4b 11 63 3d 51 c8 d6 3c
       0.00013471693 -0.00523928 0.055436414 0.026218565
000210 59 b0 82 b2 99 23 79 3c 7d 3f 48 33 46 b5 62 ba
       -1.5214185e-08 0.015206241 4.662387e-08 -0.00086482277
000220 80 d9 7d 3c 4f 33 72 bd 4f 5a e0 b9 f1 d4 68 37
       0.015493751 -0.059130963 -0.00042791895 1.3877857e-05
000230 f8 0d 3b 3b f1 17 b5 3c 53 95 8f 3c 65 10 38 3a
       0.0028542262 0.022106143 0.017527258 0.0007021486
000240 ba 57 1a 3e 64 16 12 bb 04 3d dd 3a 1a dc 26 3d
       0.15072528 -0.0022291178 0.0016879146 0.04073725
000250 ee 3a c5 b0 38 92 57 b5 00 55 12 3b 56 97 8b 3c
       -1.4350385e-09 -8.030652e-07 0.0022328496 0.017039936
000260 30 12 d5 3d d7 a0 b3 b5 8a 3b 88 3c 0a 79 f2 bc
       0.104038596 -1.338335e-06 0.016629953 -0.029598732
000270 38 43 0c b3 0a 2a e9 3b a5 29 55 bc 92 af a0 2e
       -3.2657425e-08 0.007115607 -0.013010417 7.307145e-11
000280 41 ac c9 3a 4d 0a 0b be 62 e2 23 3e 57 43 6d bd
       0.0015386419 -0.13578148 0.16004327 -0.05792555
000290 9d d1 80 3a 7b ae 3e 3e ae 05 de bc 06 bb 8a b1
       0.0009828095 0.18621247 -0.027102318 -4.0375907e-09
0002a0 b5 d7 0e 3e b6 ad 73 bd 2f dd a4 bc a0 53 2f 39
       0.13949473 -0.059491836 -0.020125 0.00016720453
0002b0 20 14 e1 3c 14 eb 92 3e 40 50 a0 3d 55 ce 21 bd
       0.027475417 0.28694975 0.078278065 -0.039503414
0002c0 f8 df ef 3b 6d 82 2e 3d ac 87 3b b5 c8 a4 22 3e
       0.0073204003 0.042604852 -6.9860357e-07 0.15883172
0002d0 19 ea 43 3a fc b8 be 32 9d a1 4e 38 c2 37 29 3e
       0.0007473543 2.2203032e-08 4.926474e-05 0.16525176
0002e0 8a fa 0d 3d 65 6a a4 bb 55 08 6a 3e f8 cb ba 3c
       0.03466276 -0.005017566 0.22854741 0.022802338
0002f0 eb 0a 5d 3a ea d0 b8 bd 26 97 b6 bc cb a4 80 31
       0.0008432108 -0.09024222 -0.02228887 3.744025e-09
000300 13 ce ed b7 10 82 eb bc da 24 94 3e e2 1f 0b bd
       -2.8348562e-05 -0.028748542 0.28934366 -0.033965953
000310 01 ef a5 bb 5d f6 81 bc a4 9c 18 30 e5 38 4d 32
       -0.005063892 -0.015864545 5.551988e-10 1.1945507e-08
000320 61 db 42 3e 97 0d 13 be 2d ab 16 bd d2 44 04 39
       0.19028999 -0.14360653 -0.03678434 0.00012614139
000330 55 ce 07 3d ef 9a 8a 3e 48 c4 95 3c 24 c4 20 bd
       0.033155758 0.2707133 0.01828207 -0.039249554
000340 ca 2f 80 bc e7 1f cc 3d c3 47 2d af 09 1b 69 3e
       -0.015647788 0.099670224 -1.5759753e-10 0.2276422
000350 09 d7 12 b7 02 e6 6a b1 92 72 1e ba 0e a0 23 3e
       -8.752345e-06 -3.4182226e-09 -0.0006044294 0.15979025
000360 e9 8f 01 be 4f a6 33 32 46 eb 5c 3e e2 e2 b8 bb
       -0.12652554 1.04569855e-08 0.21574125 -0.005642281
000370 b4 b7 46 30 79 4d 8a bd 85 08 16 bd 46 cd 90 bb
       7.229304e-10 -0.06753058 -0.03662922 -0.0044190018
000380 a4 74 6c 37 2f 98 64 bb 6b b4 06 3d 9d 9d c8 bc
       1.4093854e-05 -0.0034880748 0.032886904 -0.024489218
000390 45 24 99 2f 16 e2 17 3c 70 d5 a5 b0 55 3f 8b b1
       2.785631e-10 0.009270212 -1.2065993e-09 -4.0526325e-09
0003a0 96 22 fa 3b 81 86 b1 bc ef fd 42 3c b7 d6 00 37
       0.0076335175 -0.021670582 0.011901363 7.679387e-06
0003b0 40 bf be 3a 90 46 38 3c ea d6 4c 3c 53 d0 a6 bc
       0.0014552847 0.011247292 0.012502411 -0.020363009
0003c0 50 12 81 3c 1f 56 8b bb 74 6e 83 af de 8e 7f 3b
       0.015755802 -0.00425221 -2.3907243e-10 0.0038995068
0003d0 a0 04 7c 31 3d bd e3 b4 28 d1 af bb 41 17 f1 3b
       3.6673455e-09 -4.2419734e-07 -0.0053655095 0.0073575084
0003e0 44 fc 95 3d d1 09 17 b3 81 83 0b 3c 85 fd bd bc
       0.073235065 -3.5166355e-08 0.00851524 -0.023192177
0003f0 ab 99 4a 2f 86 22 ee 3c 82 1e 3c bc bc 94 c7 b2
       1.8426387e-10 0.029069196 -0.011481883 -2.3234286e-08

fc2.bias f4 [16]
000000 b4 5c aa 3d 50 af e9 3d be 37 09 3e 05 f0 85 bc
       0.08318463 0.11410391 0.1340017 -0.016349802
000010 6c d5 16 bd b1 cd 4b bd 52 85 ba 3d 97 04 27 bc
       -0.03682463 -0.04975671 0.0910746 -0.010193965
000020 6a 88 f0 bc 0f d5 95 3d 07 f2 eb b2 b1 2d 89 31
       -0.029361922 0.07316028 -2.7467662e-08 3.9924193e-09
000030 88 bd 24 bd d1 e0 0c 3c a1 97 85 bd 08 2b b1 3e
       -0.040219814 0.008598522 -0.065230615 0.34603143

fc3.weight f4 [1, 16]
000000 57 40 c7 3e 17 7c 7d be 9a ab ba 3e 4a 5c b2 3e
       0.38916275 -0.24754368 0.36459047 0.34836036
000010 f3 e5 1c 3d e9 f1 bc 3e 58 0d b1 3e 94 e8 a1 3c
       0.038305234 0.36903313 0.34580493 0.019764222
000020 56 ad 07 3c 53 a6 c6 3e 61 61 e8 b0 61 61 e8 b0
       0.008281073 0.3879877 -1.6907898e-09 -1.6907898e-09
000030 d5 48 b8 3c c6 12 c2 3e a5 c5 11 3e 03 84 da be
       0.022495667 0.37904948 0.14235552 -0.42678842
