PathPlanning/uncertainty_path_planning/continuous_planner/proper_learnable_cp_model.pth (torch, 13884 bytes, 5 tensors)

scoring_network.0.weight f4 [64, 8]
00000000: 014b 1593 c6a7 1912 3ca0 2d92 d452 a191
00000010: 68de da10 0aec e894 5714 1393 54ae 1593
00000020: 17c7 a015 cee6 eb94 36f0 d291 7eff 3692
00000030: 187e df10 8c54 1315 0ca6 4e13 5873 8590
00000040: 75d3 9e16 589d 7b93 20b2 a38f d934 db15
00000050: 5257 e310 7a98 f992 77e4 9d16 5752 9695
00000060: f488 f192 227a fc10 e515 8593 becf 2615
00000070: efac 2696 0e2d f992 7fc4 9114 a726 3292
00000080: 0c03 9c94 923a e511 5791 2616 9851 ce94
00000090: d78b 7d14 2fd1 1d95 9cc9 8611 3fe9 9195
000000a0: 5f6a 1b91 6cd9 8792 45d6 2015 9d5c 6894
000000b0: 0c77 6e93 304d 6d94 19b6 9e91 e715 8f14
000000c0: ac14 5a12 8478 da92 aeda 5a96 3a24 3312
000000d0: 01b9 2013 84a3 3091 b938 5013 e31e f694
000000e0: 80d1 f511 6c46 8410 fd67 8c95 7d72 d192
000000f0: 2dd5 ca12 8161 0c94 3d8d e392 d1d3 fe8e
00000100: 268f 3917 1a7a a696 f551 1095 e15e a691
00000110: 0b5a 9c91 5421 8a93 2be3 3e11 e00c 8394
00000120: d1e7 cf15 8b09 7c10 b18d 6691 b9d3 8a92
00000130: e1bd 9715 17c8 8f93 a497 4196 52fa db16
00000140: 0678 1691 14ca c095 d53c 7d10 6bda 2d96
00000150: 89aa d811 c213 af91 c03e c913 996b 0995
00000160: 993a 1115 cad2 e011 221a 340e 0953 3b13
00000170: b9b9 2114 abf1 3f95 a481 c912 3a10 b695
00000180: acf9 a392 7949 ac14 fb2b 168f 6347 f095
00000190: 79e1 6690 ffdc be90 4bc9 648f 5f4b 1d14
000001a0: bae0 0593 14ef 9a14 f685 9115 e37c af13
000001b0: ed5d cd8e a6d5 f790 d8de 5990 5925 9294
000001c0: 8487 f511 c92e 9291 b593 4793 4769 b616
000001d0: 0bd6 3e94 9b48 8591 8718 5595 6b52 9811
000001e0: 8293 9713 2263 6396 2458 8b91 79d9 3e15
000001f0: e1ea 7393 ec73 dc92 13bb fd91 f09e 1815
00000200: b9f9 0f94 18f6 6f15 c815 3f91 c1b9 af0f
00000210: 4b3c a490 513d 8795 a60b 0513 a43e 1891
00000220: 808a 9612 b3e5 1514 1d9a 0591 ab60 6591
00000230: 10f1 0d14 e0a1 f295 c013 5a96 6243 1014
00000240: 56e8 4814 f536 0a13 d7e0 a090 dad0 6816
00000250: 2db9 bc90 b2bc 0092 4aa7 0a14 df5d fe0f
00000260: c0dd a793 40cb 3696 2090 a710 895f 5d14
00000270: a3ce 8912 bc95 228b 2a3b 830f 331e ad90
00000280: 5faf 1f94 2812 5012 5d0d 6b11 9fb5 2495
00000290: 0687 2190 8c98 6813 53a0 1095 71ad 2a13
000002a0: 106c 0d15 deba 3692 0db3 6191 b051 bd11
000002b0: 178e 9c16 e5b9 0c96 41f4 0e13 6a83 0414
000002c0: fbf5 0d95 2872 5e12 ba33 5211 b016 2612
000002d0: 6b00 cb95 a92f 1813 080e 6a14 f20a 9412
000002e0: 22ff e111 212c 7694 1af9 4a94 db62 c792
000002f0: a381 0891 f917 418f 45e1 8410 79f8 fd12
00000300: c472 9191 5f95 d314 3786 f511 07b6 8b91
00000310: be36 b213 f5fb 7892 4d9c 9e95 9ac9 2093
00000320: 4d89 dc91 b482 e894 9d2c bb95 d1b5 4816
00000330: 737e 8412 c61c 2092 cc89 8a14 dae4 1f11
00000340: b0f1 c396 ba0e 0296 9b4e e894 e07c 8f16
00000350: ee18 8d96 ed93 1896 b677 8215 bc02 c092
00000360: b46e 8715 1b26 0191 3f85 dd13 5872 2a13
00000370: f9de fd91 df67 3b12 3926 e394 d603 0d10
00000380: f27e 6115 82f9 3c94 9538 4614 a3ec b914
00000390: 37ba 4091 f6fe bb94 db3a 3511 f171 ba10
000003a0: 6a4a 6b8d b306 fa90 06fa 5094 9fd4 c691
000003b0: 39af b213 272a 5a12 584a 478f 245c 8c13
000003c0: 45a2 ee15 09ec c695 392c 7d91 038e 1411
000003d0: e9c5 5395 a166 6115 b735 3091 2d10 3491
000003e0: 02af 4790 8bb7 2f15 dbdf 3d8f 544e c792
000003f0: 1e2d 0816 6668 088f 0a66 f08f 421a 2213
-1.8843424e-27 4.8485084e-28 -5.478668e-28 -2.5452368e-28 8.632851e-29 -2.3519114e-26 -1.8564037e-27 -1.8892394e-27
6.4937594e-26 -2.3819972e-26 -3.32802e-28 -5.774399e-28 8.815227e-29 2.975311e-26 2.6082723e-27 -5.2636965e-29
2.5659725e-25 -3.175823e-27 -1.6141652e-29 8.8536774e-26 8.967025e-29 -1.5751698e-27 2.55089e-25 -6.0714427e-26
-1.5243e-27 9.958465e-29 -3.359551e-27 3.3687313e-26 -1.3463941e-25 -1.5725216e-27 1.4718762e-26 -5.621454e-28
-1.5753176e-26 3.6165926e-28 1.3455234e-25 -2.0832867e-26 1.2800814e-26 -3.1870914e-26 2.1265724e-28 -5.893303e-26
-1.2260122e-28 -8.573296e-28 3.248077e-26 -1.17312715e-26 -3.0098518e-27 -1.1980665e-26 -2.504023e-28 1.4447949e-26
6.881415e-28 -1.3787444e-27 -1.7678903e-25 5.6527093e-28 2.0286053e-27 -1.3934339e-28 2.6281257e-27 -2.4851835e-26
3.8783299e-28 5.217332e-29 -5.6709614e-26 -1.3217978e-27 1.2800544e-27 -7.087423e-27 -1.4360532e-27 -6.2819806e-30
5.9957403e-25 -2.6895803e-25 -2.914522e-26 -2.6248656e-28 -2.4667954e-28 -3.486896e-27 1.5058359e-28 -1.3232698e-26
8.3972376e-26 4.970559e-29 -1.8187463e-28 -8.761218e-28 6.128799e-26 -3.629558e-27 -1.5638265e-25 3.5539333e-25
-1.1869899e-28 -7.7867005e-26 4.9942316e-29 -1.4043749e-25 3.4183892e-28 -2.7622308e-28 5.080141e-27 -2.775181e-26
2.9328742e-26 3.5470877e-28 2.2199295e-30 2.3643658e-27 8.16505e-27 -3.8762785e-26 1.2716842e-27 -7.3534816e-26
-1.0348295e-27 1.7396542e-26 -7.404041e-30 -9.7047856e-26 -4.55332e-29 -7.5282284e-29 -1.12800355e-29 7.941339e-27
-1.6897759e-27 1.5644326e-26 5.8776387e-26 4.429936e-27 -5.062685e-30 -9.77535e-29 -4.2967377e-29 -1.4756964e-26
3.8737702e-28 -2.3063572e-28 -2.5190156e-27 2.9470125e-25 -9.634761e-27 -2.1028447e-28 -4.3034356e-26 2.4032166e-28
3.8263213e-27 -1.8368195e-25 -2.1984654e-28 3.854175e-26 -3.0786716e-27 -1.3912529e-27 -4.0031655e-28 3.0821535e-26
-7.268904e-27 4.84598e-26 -1.5073955e-28 1.7327882e-29 -6.477949e-29 -5.4622806e-26 1.6792703e-27 -1.2009988e-28
9.500474e-28 7.567878e-27 -1.053934e-28 -1.8094703e-28 7.166222e-27 -9.7998415e-26 -1.7616132e-25 7.283431e-27
1.014324e-26 1.7445145e-27 -6.3455293e-29 1.8806713e-25 -7.4438234e-29 -4.0622263e-28 7.0002115e-27 2.5082492e-29
-4.237539e-27 -1.4765977e-25 6.6091945e-29 1.117649e-26 8.696855e-28 -3.1312713e-32 1.2940386e-29 -6.8283e-29
-8.0620344e-27 6.5655607e-28 1.8542349e-28 -3.326281e-26 -3.185567e-29 2.9357728e-27 -2.9207042e-26 2.154253e-27
2.855997e-26 -5.7659405e-28 -1.7804545e-28 2.9869286e-28 2.529283e-25 -1.1367768e-25 1.8043346e-27 6.690214e-27
-2.8668768e-26 7.0191557e-28 1.6582018e-28 5.240833e-28 -8.1991706e-26 1.9208595e-27 1.1816748e-26 9.342811e-28
3.5655978e-28 -1.2428529e-26 -1.02475204e-26 -1.2583035e-27 -1.0768456e-28 -9.520252e-30 5.24119e-29 1.6027798e-27
-2.2947696e-28 2.1364472e-26 3.87369e-28 -2.2042516e-28 4.4987497e-27 -7.8565563e-28 -6.406229e-26 -2.0294236e-27
-3.4794498e-28 -2.3477567e-26 -7.5599086e-26 1.6213242e-25 8.361543e-28 -5.0522564e-28 1.398879e-26 1.2613409e-28
-3.1656475e-25 -1.0505963e-25 -2.3457018e-26 2.3181703e-25 -2.2795511e-25 -1.2325139e-25 5.269545e-26 -1.2117578e-27
5.4700725e-26 -1.0188048e-28 5.5919634e-27 2.1513392e-27 -4.005378e-28 5.9134827e-28 -2.2936219e-26 2.7810302e-29
4.553853e-26 -9.540781e-27 1.0007604e-26 1.8773563e-26 -1.5203511e-28 -1.8982739e-26 1.4296519e-28 7.353962e-29
-7.250454e-31 -9.8617935e-29 -1.0550625e-26 -3.136993e-28 4.51063e-27 6.884063e-28 -9.8257756e-30 3.5431826e-27
9.638345e-26 -8.034396e-26 -1.9971808e-28 1.1718902e-28 -4.2767234e-26 4.5519348e-26 -1.3900504e-28 -1.4204481e-28
-3.938065e-29 3.5485758e-26 -9.3615324e-30 -1.2577975e-27 1.1000229e-25 -6.725424e-30 -2.3705131e-29 2.046022e-27

scoring_network.0.bias f4 [64]
00000000: 74a1 2112 7565 3b11 fcb1 e390 38bb f210
00000010: 19d2 0113 8d75 1411 479b ac14 0fd5 0814
00000020: b3d2 3a13 a213 1511 2789 0212 7f72 b713
00000030: 4945 af11 d62b 2c91 1384 a613 eb8c fb10
00000040: 0122 6e10 a156 c011 e104 f90f db44 7011
00000050: f857 9611 bbdb 6d10 79c7 d491 0d70 fb12
00000060: ced8 9111 fca8 b412 659d 4e14 a906 0212
00000070: 1e3e ac11 ec11 a40f 8124 0b8f e5fd 0892
00000080: 61e1 0591 5678 0093 d4b2 bd12 16ed b692
00000090: ed00 c112 fc08 0c8e 68ab 9092 64d2 c513
000000a0: 7b3d 0d91 37c0 ba95 b0d9 c415 0233 9591
000000b0: fed5 1c11 0da9 5f93 ff6e af14 3b9a 9e0f
000000c0: 8a90 2993 0732 b892 2f72 3d13 9c85 5791
000000d0: c0f1 1710 49fe e511 4db0 6192 95e3 9212
000000e0: 84b6 8512 5cfc ae91 37d0 a291 2272 ad91
000000f0: 04bc 1512 ecc6 0812 a24a 5890 c837 3e93
5.100165e-28 1.4782963e-28 -8.980994e-29 9.5740626e-29 1.6385675e-27 1.1711365e-28 1.7428808e-26 6.908264e-27
2.3580383e-27 1.1760077e-28 4.118982e-28 4.6308596e-27 2.7652832e-28 -1.3581916e-28 4.2034527e-27 9.921916e-29
4.696342e-29 3.0345648e-28 2.4555175e-29 1.895388e-28 2.3720042e-28 4.6909283e-29 -3.3570637e-28 1.586795e-27
2.3010582e-28 1.1401255e-27 1.0431383e-26 4.1028976e-28 2.7175098e-28 1.6178552e-29 -6.8602595e-30 -4.3226982e-28
-1.05613e-28 -1.6215202e-27 1.1971661e-27 -1.1544261e-27 1.2180241e-27 -1.7260658e-30 -9.129933e-28 4.9937253e-27
-1.1141884e-28 -7.5428063e-26 7.950722e-26 -2.353949e-28 1.2372172e-28 -2.8229906e-27 1.7714265e-26 1.563941e-29
-2.1402062e-27 -1.1624365e-27 2.391145e-27 -1.7001681e-28 2.9965737e-29 3.6286545e-28 -7.121479e-28 9.269999e-28
8.438474e-28 -2.7607888e-28 -2.5687416e-28 -2.7364927e-28 4.7247857e-28 4.3159223e-28 -4.2655984e-29 -2.4008874e-27

scoring_network.3.weight f4 [32, 64]
00000000: 07ff 3794 33d1 d20f 9bc5 bf8d 0340 d310
00000010: cc81 5495 a1c6 9590 6991 b693 ba67 0f12
00000020: c011 5e93 6850 0011 5e8d 8314 9ee6 7013
00000030: 6ed7 6494 7bb7 5c11 aa03 7f14 aff2 2793
00000040: 5d6a 1293 00c9 a612 5f8b 490f 5f5a 6891
00000050: a19d ae10 323c 9b0f 091e c30f baf0 b010
00000060: 28af 3293 73c9 3090 0377 a393 ba3c 4a93
00000070: aa3e 4092 3f8a 3914 b601 bb0f 9ae8 8312
00000080: 6294 dc12 4d2b 2b90 5aae 3892 6393 0894
00000090: a0cd 8692 b121 4c92 22d4 2290 0907 2090
000000a0: 1840 dd14 35ee 8691 e1dc e811 13d1 5f90
000000b0: fc55 9314 1550 7e13 1ee0 5d0e aecc 9e90
000000c0: 8588 2792 0edb 5211 9ed4 4b8f abe5 5a94
000000d0: 1b86 4e11 3d33 4793 a3b6 3a14 948f 4f95
000000e0: 91b1 dc13 e274 3a93 4cae 6c13 8681 2813
000000f0: 5c34 2d92 5c15 ce13 17c9 4a12 c6d4 af10
00000100: 3f07 9910 a517 1192 1230 ad13 1671 2213
00000110: 11ba e693 4b66 7f91 38c7 6393 6328 c214
00000120: 1c2d 7d95 b365 cb15 6f11 c811 f954 0113
00000130: dc67 3b12 518e 8d13 d5eb 9a11 1041 9f13
00000140: ef9b ea92 d4ff ca93 113b 5e93 d86f 0f0f
00000150: 1ce0 6515 7191 4f0e 9b7d e412 524f e193
00000160: 873a 941e a94c 6790 c6d4 0313 2fb7 e390
00000170: 8b1d db11 a3ae e993 9c65 7a10 1219 e00e
00000180: 737d 4895 9e72 6f8f 6773 a20f aa0e 9915
00000190: 31f6 f194 a56d ce13 df6c 3e14 e539 fd11
000001a0: dca0 e790 4dfa 8911 6473 6212 3582 f38f
000001b0: 9d16 9313 aac2 a094 4508 ea10 5d98 a38f
000001c0: 6133 f110 63c5 b213 96f5 bd94 b63f 9114
000001d0: b64f 2814 473a 3593 6c67 8b95 f9db 0c12
000001e0: ac49 2993 fe98 b510 9b34 a293 ef65 0b91
000001f0: c334 fb12 8ab6 1713 70b3 990e 7343 2592
00000200: 9bce 3790 7f2e 8d94 17fd 050f c491 6594
00000210: 9085 cc93 4251 cc8f 3056 a010 32e7 fc0e
00000220: 5bed ed93 841c 8994 4667 ee14 f081 0a0f
00000230: c236 c293 c0da 7b93 32f6 500d 76ce 9f13
00000240: 0d77 3c95 6853 8e14 b738 0415 07fb e98e
00000250: dd1e 5113 eabe 2590 6af8 e48e 806c a510
00000260: 1b06 d694 1c3e a813 c619 6a14 7e91 3b93
00000270: 0c15 2091 b52a 0791 cf88 d394 1163 e191
00000280: b2b7 0493 0491 8810 543c c292 6a26 6995
00000290: 2658 f28c fffb 1b11 61c8 a394 f1e5 8c92
000002a0: f195 7e0e 6720 5c13 fd83 2a90 375b 1512
000002b0: aca0 be0f 2264 8e0f 42ad ee12 369f e913
000002c0: 2879 b215 a6a1 2b92 9f7b 868f 3a18 c512
000002d0: 4421 5913 502f ab93 e899 6a10 0b6f c995
000002e0: 50da de11 063b 5311 f287 ea8b 6561 ad91
000002f0: b657 1894 7708 8a12 00db cb91 d903 2892
00000300: 9001 7a11 b3f2 8112 89ca a291 1b01 1492
00000310: e713 6591 a107 1390 f556 1d94 400c eb0d
00000320: f2a5 a78f 83fb ac92 4293 a994 5c62 c40e
00000330: 7de6 8d93 c8ad 0d10 7852 4611 4b47 d192
00000340: 4fba 7c93 6821 e20e 30b0 9311 28d8 fe92
00000350: ef2a b414 5228 9d92 dedf eb0f 7b12 3e94
00000360: c6f1 ee10 f827 0e95 7826 c613 b4f2 9694
00000370: 5143 ec94 ecb2 0013 d276 8392 d6c2 f492
00000380: f683 ae90 13c1 d712 718d ee91 e477 6193
00000390: cb54 1613 0e13 8010 306e f013 d788 ed8d
000003a0: 361d 1c13 52fd 070f c5a2 9691 bcb1 b013
000003b0: adf0 cb93 7236 3f12 02cc 5912 6f32 8e8f
000003c0: 5696 1394 3862 e30f 5bee 6c92 476e 0c94
000003d0: ad6c af8f 1068 6411 d5de 1514 c54a 4813
000003e0: a51d d88f 0421 b013 3231 8a13 32d5 670e
000003f0: 6eb3 dc93 2f75 c295 5044 8195 5cc4 7011
-9.289434e-27 2.078818e-29 -1.1818856e-30 8.332345e-29 -4.291545e-26 -5.9076174e-29 -4.6086645e-27 4.5250697e-28
-2.802909e-27 1.0122197e-28 1.3283379e-26 3.0405962e-27 -1.1553544e-26 1.7411479e-28 1.28749326e-26 -2.1198016e-27
-1.8480232e-27 1.0525623e-27 9.936907e-30 -1.8329421e-28 6.8873765e-29 1.5307366e-29 1.9240054e-29 6.979066e-29
-2.2553117e-27 -3.486507e-29 -4.126434e-27 -2.5525925e-27 -6.0661757e-28 9.367377e-27 1.8440283e-29 8.324603e-28
1.3920531e-27 -3.375716e-29 -5.8275068e-28 -6.895312e-27 -8.507279e-28 -6.441258e-28 -3.2112288e-29 -3.1559856e-29
2.2340578e-26 -2.1288279e-28 3.6739273e-28 -4.414006e-29 1.4877122e-26 3.209879e-27 2.7348262e-30 -6.263537e-29
-5.286418e-28 1.663358e-28 -1.0049621e-29 -1.1051481e-26 1.6291859e-28 -2.5142594e-27 9.426619e-27 -4.191658e-26
5.57109e-27 -2.3534128e-27 2.9873323e-27 2.1268441e-27 -5.4653713e-28 5.2022773e-27 6.3987824e-28 6.935316e-29
6.0359024e-29 -4.5783077e-28 4.371874e-27 2.050303e-27 -5.824364e-27 -2.0147475e-28 -2.874965e-27 1.9604924e-26
-5.1128528e-26 8.21515e-26 3.156518e-28 1.6323984e-27 5.913481e-28 3.573374e-27 2.4442259e-28 4.02014e-27
-1.4805917e-27 -5.1244235e-27 -2.8049461e-27 7.071985e-30 4.6422973e-26 2.5584747e-30 1.4419787e-27 -5.68762e-27
1.5694316e-20 -4.5615774e-29 1.663943e-27 -8.981795e-29 3.4570315e-28 -5.8989674e-27 4.9382084e-29 5.5244405e-30
-4.048864e-26 -1.1805684e-29 1.6018885e-29 6.1819344e-26 -2.4431887e-26 5.210983e-27 9.61402e-27 3.9952042e-28
-9.136128e-29 2.1769049e-28 7.1455256e-28 -2.4011804e-29 3.7130315e-27 -1.6232653e-26 9.230947e-29 -1.6131729e-29
9.51369e-29 4.5128155e-27 -1.918099e-26 1.4666388e-26 8.497553e-27 -2.2874145e-27 -5.6304824e-26 4.444735e-28
-2.1367122e-27 7.1627634e-29 -4.0946422e-27 -1.0996577e-28 1.5853334e-27 1.9148878e-27 3.7890204e-30 -5.2147957e-28
-3.624955e-29 -1.4255701e-26 6.6061496e-30 -1.1590293e-26 -5.1628543e-27 -2.0147252e-29 6.3241665e-29 6.234543e-30
-6.006126e-27 -1.3844712e-26 2.4072593e-26 6.82895e-30 -4.902648e-27 -3.1788506e-27 6.4391295e-31 4.034083e-27
-3.8060212e-26 1.4371234e-26 2.6701928e-26 -5.7680665e-30 2.6394725e-27 -3.2687587e-29 -5.6445554e-30 6.5248195e-29
-2.1610886e-26 4.2470407e-27 1.1819064e-26 -2.3674451e-27 -1.262826e-28 -1.0662782e-28 -2.1359517e-26 -3.5559795e-28
-1.6751311e-27 5.3865974e-29 -1.2257993e-27 -4.708428e-26 -3.7339056e-31 1.2304996e-28 -1.653783e-26 -8.891927e-28
3.1380111e-30 2.778388e-27 -3.362827e-29 4.712854e-28 1.8797335e-29 1.4040851e-29 1.5062623e-27 5.8974463e-27
7.208478e-26 -5.4157333e-28 -1.3261037e-29 1.243842e-27 2.7405652e-27 -4.3213122e-27 4.6266928e-29 -8.135845e-26
3.515997e-28 1.6663153e-28 -9.033807e-32 -2.7354611e-28 -7.691337e-27 8.711111e-28 -3.2162722e-28 -5.3016195e-28
1.9722004e-28 8.200875e-28 -2.5683915e-28 -4.670193e-28 -1.8071048e-28 -2.8996515e-29 -7.943624e-27 1.4485942e-30
-1.6531391e-29 -1.09167285e-27 -1.7122722e-26 4.8412447e-30 -3.5820683e-27 2.7941223e-29 1.5644859e-28 -1.3207329e-27
-3.1898729e-27 5.574547e-30 2.3301095e-28 -1.608294e-27 1.819229e-26 -9.918033e-28 2.325902e-29 -9.596193e-27
9.424696e-29 -2.87082e-26 5.002016e-27 -1.5241859e-26 -2.3856462e-26 1.6244087e-27 -8.296554e-28 -1.5446596e-27
-6.8834217e-29 1.3616004e-27 -3.763695e-28 -2.8458103e-27 1.8974468e-27 5.0516456e-29 6.069317e-27 -1.4639196e-30
1.970437e-27 6.7048016e-30 -2.3766142e-28 4.4603906e-27 -5.148173e-27 6.033608e-28 6.8724586e-28 -1.4021707e-29
-7.451252e-27 2.242176e-29 -7.4762265e-28 -7.089942e-27 -1.7298193e-29 1.8018095e-28 7.5665235e-27 2.5280413e-27
-2.1310663e-29 4.4461202e-27 3.4884608e-27 2.8575598e-30 -5.571274e-27 -7.854086e-26 -5.2210463e-26 1.899317e-28

scoring_network.3.bias f4 [32]
00000000: dbab b71a de10 111c be5d a820 6601 eb19
00000010: b6c8 ea29 ee7c 5024 c077 1a25 bb6a 0521
00000020: c1e9 8f18 a469 281b beea 661a 05ac 0125
00000030: 02ed 3529 f5a5 b921 66ba 581a dae3 9c1a
00000040: 5108 b824 bdb9 f221 076b 2723 4df5 fe27
00000050: 62c5 1323 328b 8d19 a7fb c519 6fbb f327
00000060: 53ea 7117 b0d2 d21f 87df 1e1c c55f 2c1a
00000070: b89a ad1a d0d3 9919 8e43 8a25 0ac6 9c1f
7.5964674e-23 4.7998276e-22 2.852234e-19 2.4298995e-23 1.0426505e-13 4.520863e-17 1.3397944e-16 4.520341e-19
3.7200665e-24 1.3930769e-22 4.775251e-23 1.1247249e-16 4.0395645e-14 1.2580016e-18 4.4818325e-23 6.48882e-23
7.981137e-17 1.6447722e-18 9.075752e-18 7.0765118e-15 8.010683e-18 1.4635279e-23 2.0470964e-23 6.7649265e-15
7.816706e-25 8.928701e-20 5.2566717e-22 3.5646128e-23 7.1801085e-23 1.590538e-23 2.398496e-16 6.63962e-20

scoring_network.6.weight f4 [1, 32]
00000000: 3d57 d39a 9616 269c 986b 18a1 f4e6 039a
00000010: 404f f6a9 10e4 4da4 3c60 1da5 f3af 04a1
00000020: 4771 9d98 bf6f 339b 3a06 6b9a 2541 0aa5
00000030: 818e 44a9 7897 a7a1 b88d 329a 51cb a99a
00000040: 99ef c0a4 fa46 00a2 ae14 3aa3 849b 08a8
00000050: eda0 11a3 dd5d 9499 7717 c899 cbe0 00a8
00000060: 1eb6 8097 f4c8 d09f c94f 379c 374b 3d9a
00000070: 1487 d79a 7e63 9c99 5ed9 92a5 cb4c a09f
-8.7408496e-23 -5.4953984e-22 -5.1642e-19 -2.7276728e-23 -1.0938342e-13 -4.4645466e-17 -1.3650185e-16 -4.4956206e-19
-4.069793e-24 -1.484264e-22 -4.860189e-23 -1.1991664e-16 -4.3644345e-14 -1.1356454e-18 -3.6924017e-23 -7.022524e-23
-8.367262e-17 -1.738481e-18 -1.0087459e-17 -7.583239e-15 -7.894543e-18 -1.5340752e-23 -2.0688993e-23 -7.1541716e-15
-8.317779e-25 -8.8423876e-20 -6.065274e-22 -3.9145042e-23 -8.9140146e-23 -1.6170207e-23 -2.5474256e-16 -6.788968e-20
