icra_implementation/checkpoints/cp_model.pth (torch, 14098 bytes, 5 tensors)

network.0.weight f4 [64, 10]
-0.00020478916 8.0585334e-05 -2.6038997e-05 5.7502286e-05 -9.022067e-05 -4.4775355e-05 -3.315461e-05 8.880794e-05
-4.3632355e-07 -0.00013405924 3.67929e-05 -0.00028912013 5.1621926e-05 2.680945e-05 0.00018496989 0.00013498805
-0.000215352 1.9471418e-05 -4.3283275e-05 -7.622417e-06 8.4258914e-05 1.4066891e-05 2.5755817e-05 0.00015632824
1.68019e-05 2.8806971e-05 0.00011905362 5.2225314e-06 0.00016498376 8.791613e-05 -3.7224276e-05 4.1824613e-05
1.0909874e-05 0.00013877344 2.7056649e-05 -1.1692763e-05 0.00015495985 0.00011246117 0.00013330474 5.7778077e-05
-0.00018311414 6.371569e-05 -7.9950645e-05 0.00018444672 -0.00025705431 6.009025e-05 -1.9628042e-05 -0.0001233302
3.289705e-05 -0.00013032809 -7.0238144e-05 -0.0002478838 4.4907803e-05 3.419243e-05 -1.8796249e-05 -0.00011896193
0.0001480561 -0.000114854425 -5.2514784e-05 -0.00013063205 -7.627178e-05 -5.448864e-05 -0.00015967616 5.3615928e-05
-0.00014044825 2.9532366e-05 -5.282309e-05 0.00013933545 9.5647236e-05 -4.4415956e-05 6.338661e-07 -2.3922199e-05
-0.00017804377 -4.3217788e-05 1.0597099e-05 -6.7954024e-05 2.1048603e-05 0.00010777429 1.1559578e-05 -2.3508297e-05
-0.00011445237 -3.08885e-05 4.294722e-06 2.4764882e-05 -3.7771966e-05 4.892816e-05 5.8624842e-05 3.8739898e-05
1.113634e-05 0.00017724186 4.71988e-05 0.00010777958 0.00012468707 -8.590374e-06 1.8398665e-05 -0.00017292489
0.000188656 -0.00015255039 -3.0227804e-05 -3.773821e-05 -1.14705435e-05 2.9181409e-05 0.00020103983 4.25818e-06
-9.446952e-05 3.257089e-05 0.00012559419 -0.00013144963 6.12684e-05 -7.394299e-05 -5.1767656e-05 2.377269e-05
-7.46847e-05 -8.1090315e-05 -0.00021009671 6.940342e-05 4.3413114e-05 0.00011830516 2.2778386e-05 -1.5240056e-05
-8.1216866e-05 7.026457e-05 0.000118052405 0.00016642007 0.00016498886 -6.453306e-05 1.366765e-05 -8.179739e-05
0.000107912565 -7.228849e-05 -2.3669532e-05 -3.4747303e-05 -0.000102540405 0.00011878497 7.3310066e-06 0.00018761767
0.00010956656 1.3800126e-05 2.7665654e-05 0.00026614696 0.00013512553 2.5260219e-05 2.044434e-05 -5.6803638e-05
-0.00014133754 -7.680222e-05 0.000273995 -1.36288345e-05 -0.00010651033 7.958839e-05 -1.3848136e-05 0.00012423405
2.857315e-05 6.0976723e-05 -7.0055896e-05 -0.00014305663 -0.00016995432 8.696284e-05 2.0896655e-06 -9.72552e-05
-6.412181e-06 -6.130104e-05 -7.998675e-05 5.187295e-05 1.0588291e-05 9.055722e-05 -1.5194874e-05 -4.6933023e-05
-0.00013445747 7.242947e-05 -3.1074098e-05 2.0202984e-05 7.8881545e-05 -0.00012583948 5.8140737e-05 3.8658414e-05
3.297755e-06 -5.9412436e-05 4.7303074e-05 -6.470327e-05 -8.046491e-05 -0.00019465611 -1.0302496e-05 -9.346622e-05
2.1315767e-05 9.649056e-05 0.00021351321 2.7165883e-05 -7.2609066e-05 -0.000115776646 -7.113037e-05 -0.00017412555
0.00016200746 4.207985e-05 -6.091886e-05 9.155191e-05 0.00014766527 1.5958363e-05 -1.2168127e-05 -9.092014e-06
-7.335908e-05 -2.0423815e-05 -0.00011775511 9.061257e-05 7.2314615e-05 2.2935563e-05 4.057771e-05 3.56184e-05
7.2062094e-06 -6.991116e-05 6.618094e-05 -6.0960534e-05 2.2076189e-05 -0.000116866264 0.00020779454 -4.1865974e-06
-0.00015730383 -0.00010442575 1.7599674e-06 5.6868507e-06 -1.1924024e-05 1.7138475e-05 8.446051e-05 -4.0124185e-05
-0.00018775418 -0.00011847448 -5.6360415e-05 -7.4092923e-06 -5.6622146e-05 -9.147118e-05 5.1814055e-05 -0.00013121201
4.132394e-05 -0.00017644506 -0.00012765435 -7.313036e-05 -6.5336186e-05 1.7178365e-05 0.00011440432 4.810555e-05
4.6521625e-05 3.2642696e-05 -3.8875496e-05 6.6210014e-05 -1.5544507e-05 -5.0774586e-05 0.0001015872 4.19454e-05
-0.00017728117 -0.0002495267 -0.0002066151 -2.1634605e-05 0.00011431628 0.00011991082 8.1481696e-05 -0.00011262502
00000000: acbc 56b9 ecff a838 526e dab7 9c2e 7138
00000010: da34 bdb8 2ccd 3bb8 7e0f 0bb8 663e ba38
00000020: da3f eab4 4192 0cb9 1352 1a38 0c95 97b9
00000030: 9f84 5838 dbe4 e037 7af4 4139 948b 0d39
00000040: 1dd0 61b9 8d56 a337 108b 35b8 10c4 ffb6
00000050: 29b4 b038 d600 6c37 320e d837 0bec 2339
00000060: cef1 8c37 80a6 f137 6dac f938 343d af36
00000070: 7eff 2c39 9d5f b838 4321 1cb8 d66c 2f38
00000080: 8d09 3737 b683 1139 b6f7 e237 092c 44b7
00000090: b87c 2239 22d9 eb38 b8c7 0b39 bd56 7238
000000a0: 5402 40b9 1a9f 8538 2dab a7b8 0a68 4139
000000b0: 3fc5 86b9 6a09 7c38 e6a6 a4b7 3352 01b9
000000c0: f0fa 0938 aea8 08b9 d14c 93b8 67f6 81b9
000000d0: 635b 3c38 d869 0f38 a3ac 9db7 337b f9b8
000000e0: 823f 1b39 00de f0b8 5243 5cb8 46fa 08b9
000000f0: 1af4 9fb8 bb8a 64b8 be6e 27b9 aae1 6038
00000100: 4a45 13b9 46bc f737 5c8e 5db8 931a 1239
00000110: 3896 c838 454b 3ab8 f226 2a35 88ac c8b7
00000120: 43b1 3ab9 bf44 35b8 32ca 3137 8a82 8eb8
00000130: 8891 b037 e204 e238 02f0 4137 af33 c5b7
00000140: 2606 f0b8 468e 01b8 621b 9036 2ebe cf37
00000150: 576d 1eb8 3638 4d38 f2e3 7538 a67c 2238
00000160: 37d6 3a37 00da 3939 53f7 4538 b907 e238
00000170: 6ebe 0239 601f 10b7 d556 9a37 2c53 35b9
00000180: f6d1 4539 eff5 1fb9 b791 fdb7 1849 1eb8
00000190: 9c71 40b7 99ca f437 38ce 5239 7de1 8e36
000001a0: f01d c6b8 ba9c 0838 efb1 0339 bed5 09b9
000001b0: 397d 8038 d711 9bb8 1921 59b8 776b c737
000001c0: 0ba0 9cb8 080f aab8 684d 5cb9 ad8c 9138
000001d0: 7a16 3638 991a f838 3614 bf37 8baf 7fb7
000001e0: f952 aab8 015b 9338 e792 f738 0c81 2e39
000001f0: dc00 2d39 ec55 87b8 1c4e 6537 a48a abb8
00000200: 1e4f e238 9699 97b8 ef8d c6b7 a2bd 11b8
00000210: f60a d7b8 321c f938 defc f536 3cbb 4439
00000220: 19c7 e538 1787 6737 8a13 e837 a489 8b39
00000230: 7cb0 0d39 e8e5 d337 e37f ab37 7140 6eb8
00000240: 0234 14b9 e110 a1b8 fda6 8f39 66a7 64b7
00000250: 4c5e dfb8 b1e8 a638 4b55 68b7 d344 0239
00000260: 5fb0 ef37 42c1 7f38 f9ea 92b8 7901 16b9
00000270: c435 32b9 d25f b638 2e3c 0c36 7df5 cbb8
00000280: 3728 d7b6 bf8e 80b8 8fbe a7b8 2892 5938
00000290: 5da4 3137 8ae9 bd38 7ded 7eb7 f3d9 44b8
000002a0: 27fd 0cb9 47e5 9738 8f55 02b8 9479 a937
000002b0: 356d a538 c7f3 03b9 24dc 7338 2825 2238
000002c0: 004f 5d36 9e31 79b8 4a67 4638 4eb1 87b8
000002d0: 45bf a8b8 9a1c 4cb9 e2d8 2cb7 4b03 c4b8
000002e0: 43cf b237 fa5a ca38 84e2 5f39 4ae2 e337
000002f0: b245 98b8 1dcd f2b8 d42b 95b8 7995 36b9
00000300: 8ce0 2939 e57e 3038 2183 7fb8 8fff bf38
00000310: 98d6 1a39 53de 8537 b525 4cb7 e789 18b7
00000320: 5bd8 99b8 cf53 abb7 4bf3 f6b8 4107 be38
00000330: 9da7 9738 bf65 c037 fc31 2a38 f764 1538
00000340: decc f136 459d 92b8 9fca 8a38 e0af 7fb8
00000350: 4130 b937 1916 f5b8 6ce3 5939 997a 8cb6
00000360: edf1 24b9 26ff dab8 0538 ec35 add1 be36
00000370: 4b0d 48b7 98c4 8f37 6420 b138 044b 28b8
00000380: e1df 44b9 8175 f8b8 8964 6cb8 569d f8b6
00000390: 917d 6db8 37d4 bfb8 eb52 5938 f595 09b9
000003a0: 3e53 2d38 1c04 39b9 f4da 05b9 905d 99b8
000003b0: 1905 89b8 421a 9037 5aec ef38 f1c4 4938
000003c0: 3720 4338 d4e9 0838 3f0e 23b8 3bda 8a38
000003d0: 9365 82b7 ccf6 54b8 360b d538 88ee 2f38
000003e0: 8de4 39b9 e8d2 82b9 d2a6 58b9 f67b b5b7
000003f0: 16bd ef38 a278 fb38 27e1 aa38 1931 ecb8

network.0.bias f4 [64]
0.0 0.0 0.0 0.0 0.0 0.0 0.0 0.0
0.0 0.0 0.0 0.0 0.0 0.0 0.0 0.0
0.0 0.0 0.0 0.0 0.0 0.0 0.0 0.0
0.0 0.0 0.0 0.0 0.0 0.0 0.0 0.0
0.0 0.0 0.0 0.0 0.0 0.0 0.0 0.0
0.0 0.0 0.0 0.0 0.0 0.0 0.0 0.0
0.0 0.0 0.0 0.0 0.0 0.0 0.0 0.0
0.0 0.0 0.0 0.0 0.0 0.0 0.0 0.0
00000000: 0000 0000 0000 0000 0000 0000 0000 0000
00000010: 0000 0000 0000 0000 0000 0000 0000 0000
00000020: 0000 0000 0000 0000 0000 0000 0000 0000
00000030: 0000 0000 0000 0000 0000 0000 0000 0000
00000040: 0000 0000 0000 0000 0000 0000 0000 0000
00000050: 0000 0000 0000 0000 0000 0000 0000 0000
00000060: 0000 0000 0000 0000 0000 0000 0000 0000
00000070: 0000 0000 0000 0000 0000 0000 0000 0000
00000080: 0000 0000 0000 0000 0000 0000 0000 0000
00000090: 0000 0000 0000 0000 0000 0000 0000 0000
000000a0: 0000 0000 0000 0000 0000 0000 0000 0000
000000b0: 0000 0000 0000 0000 0000 0000 0000 0000
000000c0: 0000 0000 0000 0000 0000 0000 0000 0000
000000d0: 0000 0000 0000 0000 0000 0000 0000 0000
000000e0: 0000 0000 0000 0000 0000 0000 0000 0000
000000f0: 0000 0000 0000 0000 0000 0000 0000 0000

network.3.weight f4 [32, 64]
3.0127585e-05 -1.8778159e-05 -0.0001579876 -3.4273922e-05 9.3522576e-05 7.2038674e-05 4.3255175e-05 8.922226e-05
-8.17025e-05 3.7773327e-05 -6.855719e-05 0.00012822576 8.51546e-05 3.5256893e-05 9.222784e-05 -0.00012576308
6.195098e-05 0.00016630196 3.4371922e-05 0.0001944707 -7.485524e-05 4.0768507e-05 8.342846e-05 0.00019571463
7.510466e-05 -1.4462492e-05 0.00021579866 0.00010973217 -2.6132795e-06 -0.00013354396 2.4235473e-05 -2.7830754e-06
-0.0001283441 0.00024949634 8.333794e-08 -0.00010550607 7.395423e-05 -0.00017169343 -6.776225e-06 5.862218e-05
-0.00019700838 -0.00014816194 -0.00014810899 -1.8516828e-05 -6.586833e-05 9.952602e-06 -6.26636e-05 3.3316726e-05
-5.9536425e-05 -1.8835777e-05 0.00024472 6.456163e-06 0.00015364053 -0.00010085392 -0.00010743792 0.00021585116
6.732061e-05 5.5479202e-05 7.3833544e-05 -5.480979e-06 -5.416021e-06 -6.451531e-05 -0.00014187816 5.517215e-05
4.4733686e-05 -0.00010830538 0.00010860755 0.00019207233 6.919394e-05 7.5187374e-05 -0.00013071556 7.858623e-05
-3.709076e-05 -0.0001003918 -7.106778e-05 1.8535948e-05 -1.026547e-06 -0.00015504622 3.841304e-05 -6.297761e-05
0.00019806676 0.00019811676 -2.433143e-05 1.1660012e-07 6.977767e-05 -2.2398415e-05 0.00012598214 -7.9190664e-05
-0.00020361814 -6.1793244e-06 -0.00021312358 -8.252648e-05 -5.440245e-05 0.00015776494 -1.515101e-05 -8.8102446e-05
2.5072559e-05 -6.8534915e-05 8.694475e-06 -1.0541642e-05 4.723046e-05 -2.5939196e-05 -6.755576e-05 -0.000119834185
-0.00013593413 -0.0001025153 -8.1225546e-05 0.000115675866 -4.1110703e-05 -0.00010443005 -7.159519e-05 -0.00016751447
-4.588094e-05 -0.00018035741 3.4162786e-05 -0.0002644097 0.00017864283 -0.00012044239 -5.0771916e-05 5.174462e-05
-1.534589e-05 -8.894183e-06 0.00015329458 2.0452719e-05 -1.8455827e-05 5.2896894e-06 1.5250011e-05 3.1266653e-05
-7.590866e-05 6.425586e-05 -0.00011985932 -7.994937e-05 -0.000197904 -9.857735e-05 -7.587845e-05 0.00015818862
1.0529485e-05 -1.1594801e-05 -3.5158304e-05 -1.3809813e-05 6.739186e-06 -0.00017804284 -7.069189e-05 6.4855296e-05
0.00017993034 0.00012590394 3.4124667e-05 -3.196307e-05 0.00016827528 6.349712e-05 5.6503533e-05 -1.8064999e-05
9.0997084e-05 3.383859e-05 1.8061566e-05 6.260152e-05 0.00022891042 2.568263e-05 -6.903911e-06 8.433006e-05
-0.00018877695 6.571539e-05 -1.1600767e-05 -0.00016573655 -7.7483426e-05 -8.251916e-06 0.00015618406 -4.479932e-05
-2.6778303e-05 -5.2409207e-05 -4.7006237e-05 -2.024659e-05 -3.8834736e-05 -9.0376554e-05 -2.5315734e-05 -6.513943e-05
-3.1799238e-05 9.317151e-05 4.2025975e-05 4.032532e-05 3.9432332e-05 -4.478592e-05 4.4473425e-05 8.035586e-05
-9.035367e-05 -0.00031634807 -0.0001370739 5.6558656e-05 -0.00010897216 3.5406225e-05 -0.00015365424 0.00010323034
3.3889126e-05 -5.844261e-05 6.1947553e-06 -1.7796527e-05 1.975238e-05 -5.8583413e-05 6.6694614e-05 -3.160298e-05
-5.3455493e-05 -3.015569e-05 -7.646271e-05 -8.795487e-05 4.9299837e-05 4.3644108e-05 9.305209e-05 5.647999e-05
2.7230772e-05 -0.00022930924 4.9767033e-05 -4.739379e-06 1.1001026e-05 -2.8522636e-05 -0.00014005146 -2.6111559e-06
0.00014733625 -0.00011828215 2.1749061e-05 -3.108461e-05 0.00019344376 2.7275966e-05 -1.6512011e-05 -0.000102776765
0.00010272504 -1.7246357e-05 1.962927e-05 1.2027508e-05 6.439391e-05 6.39343e-05 3.943373e-05 -5.8219135e-05
-4.7391582e-05 0.00026516846 6.745687e-05 -3.5871202e-05 9.3379e-05 3.665077e-05 -6.3122784e-06 0.000102159676
-0.00018034934 -6.4758033e-06 -6.4005595e-05 1.9930394e-05 6.789935e-05 3.6269314e-05 6.2696876e-05 -4.993872e-05
1.6328046e-05 2.6499461e-05 8.2359955e-05 0.00017451837 0.00019109182 8.393228e-05 -4.642786e-05 -2.5004651e-06
00000000: 7fba fc37 ca85 9db7 79a9 25b9 58c1 0fb8
00000010: 8d21 c438 7813 9738 e46c 3538 d61c bb38
00000020: b257 abb8 cd6e 1e38 5cc6 8fb8 5774 0639
00000030: 0795 b238 cde0 1338 726a c138 45df 03b9
00000040: aeeb 8138 5861 2e39 922a 1038 d5ea 4b39
00000050: 9afb 9cb8 dafe 2a38 50f6 ae38 bf38 4d39
00000060: 8281 9d38 eea3 72b7 0348 6239 0320 e638
00000070: cd5f 2fb6 ef07 0cb9 484d cb37 dfc4 3ab6
00000080: 1b94 06b9 d5ce 8239 84f7 b233 2443 ddb8
00000090: e017 9b38 9b08 34b9 545f e3b6 16e1 7538
000000a0: 0994 4eb9 eb5b 1bb9 b44d 1bb9 9654 9bb7
000000b0: ca22 8ab8 1afa 2637 446a 83b8 90bd 0b38
000000c0: c0b6 79b8 8601 9eb7 c34d 8039 05a2 d836
000000d0: 911a 2139 8981 d3b8 4b50 e1b8 1b56 6239
000000e0: 7a2e 8d38 57b2 6838 15d7 9a38 40e9 b7b6
000000f0: 44bb b5b6 654c 87b8 21c5 14b9 a568 6738
00000100: 6ea0 3b38 0222 e3b8 3cc4 e338 0667 4939
00000110: 371c 9138 eaad 9d38 b110 09b9 a9ce a438
00000120: e691 1bb8 7089 d2b8 390a 95b8 a57d 9b37
00000130: e3c7 89b5 e793 22b9 b01d 2138 d912 84b8
00000140: 24b0 4f39 90bd 4f39 591b ccb7 9865 fa33
00000150: 9a55 9238 3be4 bbb7 131a 0439 2a13 a6b8
00000160: 5482 55b9 fe57 cfb6 ed79 5fb9 1112 adb8
00000170: 302e 64b8 b46d 2539 1831 7eb7 a4c3 b8b8
00000180: e952 d237 67ba 8fb8 7cde 1137 02dc 30b7
00000190: 5219 4638 0098 d9b7 b9ac 8db8 7d4f fbb8
000001a0: 8a89 0eb9 7cfd d6b8 a257 aab8 0297 f238
000001b0: 486e 2cb8 7501 dbb8 6025 96b8 d3a6 2fb9
000001c0: 4970 40b8 531e 3db9 034a 0f38 78a0 8ab9
000001d0: 1252 3b39 0496 fcb8 eef3 54b8 5d08 5938
000001e0: 0cbb 80b7 3a38 15b7 b3bd 2039 e191 ab37
000001f0: 96d1 9ab7 167e b136 4cda 7f37 5024 0338
00000200: 2731 9fb8 1ac1 8638 fc5c fbb8 7eaa a7b8
00000210: 7384 4fb9 50bb ceb8 ef20 9fb8 6fdf 2539
00000220: cba7 3037 4b87 42b7 f176 13b8 b2b0 67b7
00000230: 2b21 e236 03b1 3ab9 6b40 94b8 ec02 8838
00000240: afab 3c39 1505 0439 1521 0f38 1610 06b8
00000250: 0d73 3039 c229 8538 35fe 6c38 4a8a 97b7
00000260: b0d5 be38 e9ed 0d38 eb82 9737 ef48 8338
00000270: ac07 7039 0771 d737 25a8 e7b6 5bda b038
00000280: 6df2 45b9 aed0 8938 eaa0 42b7 91c9 2db9
00000290: 997e a2b8 b671 0ab7 57c5 2339 e7e6 3bb8
000002a0: f8a1 e0b7 f5d1 5bb8 9028 45b8 39d7 a9b7
000002b0: 7be2 22b8 8b88 bdb8 205d d4b7 779b 88b8
000002c0: 2c60 05b8 1365 c338 0c45 3038 fc22 2938
000002d0: 2564 2538 84d8 3bb8 fa88 3a38 b984 a838
000002e0: 427c bdb8 85db a5b9 7fbb 0fb9 6539 6d38
000002f0: fc87 e4b8 2581 1438 3f1e 21b9 5e7d d838
00000300: 2c24 0e38 4620 75b8 8bdc cf36 c049 95b7
00000310: eab1 a537 76b7 75b8 66de 8b38 718d 04b8
00000320: 6635 60b8 daf6 fcb7 9b5a a0b8 6974 b8b8
00000330: 4cc7 4e38 810e 3738 f624 c338 ede4 6c38
00000340: a36d e437 bb72 70b9 f2bc 5038 f506 9fb6
00000350: 0c91 3837 e543 efb7 c7da 12b9 513b 2fb6
00000360: 467e 1a39 3f0e f8b8 c171 b637 d960 02b8
00000370: 2ad7 4a39 b1ce e437 4683 8ab7 db89 d7b8
00000380: 166e d738 45ac 90b7 89a9 a437 c1c9 4937
00000390: 380b 8738 7714 8638 a565 2538 5230 74b8
000003a0: 53c6 46b8 4f06 8b39 a277 8d38 6974 16b8
000003b0: 78d4 c338 77b9 1938 0fce d3b6 8f3e d638
000003c0: 281c 3db9 ba4a d9b6 be3a 86b8 3230 a737
000003d0: 3065 8e38 e11f 1838 217c 8338 4b75 51b8
000003e0: 36f8 8837 294b de37 aab8 ac38 ebfe 3639
000003f0: d25f 4839 cd04 b038 89bb 42b8 aacd 27b6

network.3.bias f4 [32]
0.0 0.0 0.0 0.0 0.0 0.0 0.0 0.0
0.0 0.0 0.0 0.0 0.0 0.0 0.0 0.0
0.0 0.0 0.0 0.0 0.0 0.0 0.0 0.0
0.0 0.0 0.0 0.0 0.0 0.0 0.0 0.0
00000000: 0000 0000 0000 0000 0000 0000 0000 0000
00000010: 0000 0000 0000 0000 0000 0000 0000 0000
00000020: 0000 0000 0000 0000 0000 0000 0000 0000
00000030: 0000 0000 0000 0000 0000 0000 0000 0000
00000040: 0000 0000 0000 0000 0000 0000 0000 0000
00000050: 0000 0000 0000 0000 0000 0000 0000 0000
00000060: 0000 0000 0000 0000 0000 0000 0000 0000
00000070: 0000 0000 0000 0000 0000 0000 0000 0000

network.6.weight f4 [1, 32]
-2.0637053e-05 0.00017664171 0.00010236538 0.00015546693 0.00015736709 0.00015743414 7.2936535e-05 0.000112156245
3.315499e-05 7.789355e-05 0.00014114134 6.606968e-05 -0.00017966698 -3.434408e-05 -1.3977801e-05 -8.5764426e-05
-0.00010129625 -0.00013344789 -0.00012557652 3.9686307e-05 -4.373008e-06 5.259804e-05 0.00010261093 -8.764675e-05
3.2564392e-05 0.00012036569 -6.336493e-05 -1.5578316e-05 1.16203955e-05 -3.976542e-05 4.0577033e-05 2.0255477e-05
00000000: bc1d adb7 e638 3939 ffac d638 d604 2339
00000010: e802 2539 e814 2539 81f5 9838 6d35 eb38
00000020: e60f 0b38 c85a a338 57ff 1339 e48e 8a38
00000030: fd64 3cb9 ad0c 10b8 3382 6ab7 6ddc b3b8
00000040: 036f d4b8 25ee 0bb9 31ad 03b9 d974 2638
00000050: dabb 92b6 b79c 5c38 d330 d738 fece b7b8
00000060: c095 0838 d66c fc38 cae2 84b8 2eae 82b7
00000070: 38f5 4237 cbc9 26b8 4231 2a38 4eea a937
